my work space/logs/hv-g1-manager/20260114_121547-g1_robust_8192envs_refined_20260114_201542-locomotion/model_22200.onnx (onnx, 956963 bytes, 8 tensors)

actor.actor_module.module.0.weight f4 [512, 100]
-0.17705952 0.011420578 0.036120784 -0.014867235 -0.15524805 0.02418906 -0.068996996 0.2261974
0.015301122 -0.12400237 -0.21284245 -0.08739775 0.09671414 0.0072982004 -0.04860951 -0.02612744
0.0004149639 -0.014458737 -0.03123417 0.003280792 0.06808891 0.03231342 -0.011751803 -0.024681894
0.008425406 -0.0048534065 0.118725255 0.02844056 -0.10425968 -0.40329465 0.5377752 0.24232545
-0.059557695 0.024037419 -0.07116769 -0.38725284 0.10382736 -0.15087762 -2.6646936 0.2232305
0.173439 -1.2533916 -1.6995441 0.6258795 2.7337186 -0.60357934 -0.3482098 0.26226646
-0.36052006 -0.2637553 -0.6331265 1.3712744 -0.017191675 -0.10215237 0.2007912 0.050382942
0.057484906 0.11310448 -0.0084028775 -0.020928394 0.09084159 0.12956 -0.033718262 0.12058746
0.06856083 0.012384328 0.36258072 0.8187747 0.3067652 0.022849351 0.06293889 0.2352128
0.67402744 0.73261535 -0.14472674 -0.4907488 -0.14244688 -0.04382053 -0.07319892 0.009034854
0.97646666 -0.18726677 0.5477392 -0.09986749 0.10938611 -0.12179132 0.12420833 0.1879914
-0.31431088 0.27547082 0.104269005 -0.013340947 -0.0076684686 0.19090742 0.04646164 1.4847289
0.62505364 -0.16367833 0.40260932 -0.15571447 -0.019197976 0.12949713 -0.15570842 0.042795863
-0.08603824 0.13362095 0.008629173 0.21072568 0.013356504 -0.007846185 -0.07394171 0.046414714
-0.13794364 -0.009713233 0.049124993 0.0019068314 0.03645422 0.0823365 -0.019352773 -0.004387379
-0.05318238 0.06159305 0.1474793 -0.036456745 0.0691579 -0.030597163 -0.030135985 0.12258059
0.09509524 0.6198852 -0.08974389 -0.17876102 -0.24696168 0.07385907 -0.15362275 0.24622117
-0.028588759 -0.3861499 -0.12974618 1.1451722 0.22309168 0.73453075 0.43252242 -0.76768756
-0.0044701514 0.15994084 -0.18106425 0.03444987 0.080949046 -0.5575732 0.83613956 -0.43588895
-0.4042534 0.051406596 -0.19882551 0.010556246 -0.026474902 0.18045907 -0.11261537 0.25068966
0.35724887 -0.098499715 0.3396921 -0.13626935 -0.16808829 -0.14187223 0.84383446 -0.6653935
1.0369235 -0.4005743 0.5189799 -0.18813251 -0.6980035 0.3757155 0.009675422 0.52013457
-0.09044843 0.14358225 -0.75890416 0.41625512 -0.6079632 -0.19905615 -0.8042674 -0.108611375
0.10491011 -0.16724674 0.11253133 -0.05296424 -0.4404276 0.37215996 -0.17199355 -0.1711476
0.27794105 -0.40792555 -0.4328759 -2.048226 0.44072905 0.3542792 -0.5393776 -0.02646418
0.022414412 -0.19855665 0.06433973 0.24874534 -0.34044346 0.023193445 -0.012572122 -0.06573444
-0.09756811 0.112106666 0.081318356 0.19552204 0.060475178 0.015247948 -0.008079891 -0.05839262
-0.014469422 -0.006993485 0.04943616 -0.014757921 0.030711839 0.1030534 0.15302703 -0.040790983
0.026685234 -0.074623965 -0.14631613 0.023555586 0.11355399 0.21791771 -0.5590666 0.12666069
4.4951897 0.04307697 3.3526049 -0.11917787 0.24833207 0.30073553 1.9567693 -0.63638496
0.031593736 0.759798 0.82825875 -0.80593354 0.87971467 1.7582707 -0.010630762 -0.20653625
0.23596855 -0.9631575 0.84807813 -0.5603986 -0.22110954 0.37950957 0.0029236327 -0.08256564
00000000: 174f 35be 601d 3b3c 63f3 133d b495 73bc
00000010: 58f9 1ebe 2328 c63c 4c4e 8dbd 4ba0 673e
00000020: 8fb1 7a3c f4f4 fdbd 5ff3 59be 97fd b2bd
00000030: 1012 c63d be25 ef3b c41a 47bd 3709 d6bc
00000040: 838f d939 57e4 6cbc cdde ffbc 8e02 573b
00000050: 3372 8b3d 145b 043d a28a 40bc af31 cabc
00000060: b70a 0a3c 5309 9fbb 3a26 f33d 2dfc e83c
00000070: 1986 d5bd a37c cebe a3ab 093f 2a24 783e
00000080: c5f2 73bd 1fea c43c 5ec0 91bd 0146 c6be
00000090: 70a3 d43d aa7f 1abe 578a 2ac0 8996 643e
000000a0: fe99 313e 236f a0bf a98a d9bf a439 203f
000000b0: 3ff5 2e40 2d84 1abf 8e48 b2be ca47 863e
000000c0: 1696 b8be ef0a 87be 9414 22bf eb85 af3f
000000d0: 8ed5 8cbc 4335 d1bd 359c 4d3e 585e 4e3d
000000e0: 4b75 6b3d 52a3 e73d 39ac 09bc 0672 abbc
000000f0: 280b ba3d 60ab 043e 291c 0abd 8ff6 f63d
00000100: 9f69 8c3d a3e7 4a3c 2ea4 b93e 389b 513f
00000110: 5410 9d3e 902e bb3c 1be6 803d a0db 703e
00000120: 108d 2c3f ae8c 3b3f 3f33 14be 6d43 fbbe
00000130: 98dd 11be 287d 33bd 51e9 95bd ed06 143c
00000140: b8f9 793f dcc2 3fbe a338 0c3f 5487 ccbd
00000150: d305 e03d ba6d f9bd f060 fe3d d180 403e
00000160: 5bed a0be 830a 8d3e fd8a d53d fd93 5abc
00000170: c747 fbbb 3c7d 433e 904e 3e3d 990b be3f
00000180: 8403 203f 4b9b 27be cf22 ce3e 9d73 1fbe
00000190: 1345 9dbc e59a 043e 0772 1fbe b74a 2f3d
000001a0: d134 b0bd eed3 083e 6061 0d3c 79c8 573e
000001b0: 3dd5 5a3c 498d 00bc c06e 97bd 5b1d 3e3d
000001c0: 1941 0dbe 4124 1fbc 4a37 493d a5ee f93a
000001d0: 0551 153d 0aa0 a83d b589 9ebc 01c4 8fbb
000001e0: c4d5 59bd fe48 7c3d d004 173e ab53 15bd
000001f0: a8a2 8d3d e7a6 fabc bedf f6bc 880b fb3d
00000200: 4bc1 c23d ccb0 1e3f a5cb b7bd 210d 37be
00000210: 86e3 7cbe 6d43 973d 484f 1dbe 6721 7c3e
00000220: f932 eabc 71b5 c5be 2fdc 04be 0195 923f
00000230: 2572 643e 350a 3c3f 9473 dd3e 2c87 44bf
00000240: 597a 92bb 88c7 233e e868 39be 4f1b 0d3d
00000250: 9dc8 a53d 1ebd 0ebf 3e0d 563f d62c dfbe
00000260: 4dfa cebe b98f 523d ea98 4bbe 1bf4 2c3c
00000270: e5e1 d8bc 43ca 383e e3a2 e6bd 655a 803e
00000280: 53e9 b63e 38ba c9bd 1fec ad3e 318a 0bbe
00000290: 561f 2cbe f446 11be 8905 583f 3a57 2abf
000002a0: e9b9 843f 1318 cdbe dedb 043f cfa5 40be
000002b0: 5bb0 32bf c85d c03e a985 1e3c 8a27 053f
000002c0: 073d b9bd 3a07 133e 8b47 42bf 641f d53e
000002d0: 7aa3 1bbf 60d5 4bbe 78e4 4dbf a46f debd
000002e0: 1ddb d63d bb42 2bbe d376 e63d 08f1 58bd
000002f0: ba7f e1be c08b be3e 141f 30be 5141 2fbe
00000300: 4a4e 8e3e 9edb d0be e9a1 ddbe 2316 03c0
00000310: 3da7 e13e 1564 b53e a714 0abf 68cb d8bc
00000320: 6e9e b73c 6f52 4bbe 8cc4 833d 19b7 7e3e
00000330: 9b4e aebe 2e00 be3c 4dfb 4dbc c79f 86bd
00000340: cad1 c7bd 2e98 e53d 3d8a a63d ee36 483e
00000350: d2b4 773d 87d2 793c 8561 04bc 1a2d 6fbd
00000360: 2811 6dbc 9b29 e5bb 927d 4a3d 35cb 71bc
00000370: 6597 fb3c a90d d33d 1eb3 1c3e 7214 27bd
00000380: fe9a da3c 73d4 98bd e5d3 15be a5f7 c03c
00000390: ff8e e83d d225 5f3e fd1e 0fbf 57b3 013e
000003a0: 98d8 8f40 7a71 303d 1491 5640 8713 f4bd
000003b0: c34a 7e3e 02fa 993e 6b77 fa3f 20ea 22bf
000003c0: 6f68 013d 1f82 423f c408 543f a951 4ebf
000003d0: fb34 613f 040f e13f a62c 2ebc 3d7e 53be
000003e0: bda1 713e 7d91 76bf a61b 593f 4876 0fbf
000003f0: 8a6a 62be 144f c23e 6b9a 3f3b 2d18 a9bd

actor.actor_module.module.0.bias f4 [512]
-0.3672688 0.05438614 -0.22525604 0.3654109 -0.14599344 -0.36500156 -0.33017159 0.084899075
-0.29884014 -0.21457961 -0.06560571 -0.3550518 -0.1372797 0.010596133 -0.026353976 0.24968296
-0.36550623 -0.38094676 0.039115667 0.12833348 0.0940953 -0.2430856 -0.18299115 -0.0041809133
0.09558584 0.18346897 -0.44816738 0.3749374 -0.4641362 0.037950695 -0.021771284 0.093082845
-0.14653078 -0.040783633 0.53262705 -0.024810527 -0.6254909 0.0432075 0.07701514 -0.074361205
0.19214463 -0.30055624 -0.20662314 0.61868685 0.29370973 -0.21844797 -0.11415448 -0.15814683
-0.30927724 -0.07834989 -0.43422312 -0.21756555 -0.14283372 -0.25449508 -0.03972143 -0.5375597
-0.607097 0.2907772 -0.020951107 0.21995284 0.23897833 0.2535266 0.20960683 0.3170854
0.059094798 0.25852403 -1.7557656 -0.31206945 0.29923955 -0.027710022 0.39171198 0.12424482
-0.43199778 -0.18171881 -0.06569534 0.1706227 0.5336888 -0.3963927 0.19022098 -0.27389008
-0.22172606 -0.54749554 -0.09430611 -0.15968378 -0.3031369 0.011305144 0.025806196 -0.20239149
0.102647364 -0.20313323 -0.15353492 -0.2169363 -0.086005315 -0.20787151 0.13558264 -0.2932339
-0.69594103 -0.09110951 0.24323863 0.04701365 -0.31142694 -0.3157768 -0.21960562 -0.07638518
-0.46752286 -0.4470693 0.042013112 0.15311475 0.06267925 0.2586438 -0.113970734 -0.4156187
0.2886606 -0.12390578 -0.2852773 0.083265916 -0.13940646 0.025716322 -0.19172339 -0.104992196
0.032050107 -0.06075656 -0.03539352 -0.2749967 -0.5208525 0.038850777 -0.18266037 0.32112837
0.047921658 0.00858423 -0.028844582 -0.013065957 0.30046257 0.014325702 -0.14970754 -0.11264088
0.2722607 0.28434134 -0.37261182 -0.13449575 0.18380292 -0.11500322 -0.5288859 -0.39082414
-0.14767647 -0.026712233 0.2422218 0.31175765 -0.21525343 -0.68476325 -0.31507728 -0.38437414
0.37914768 0.049910393 0.28289247 -0.12472147 -0.1821823 -0.029369611 -0.12503724 -0.18863249
0.053762365 0.08987217 -0.24726836 -0.14389442 0.24553268 0.13936263 -0.01836663 -0.042769525
-0.34147772 0.11859274 -0.14035758 -0.2993106 -0.04817359 0.12919866 -0.28939068 0.3394363
-0.23440309 0.13571464 0.31729722 -0.040238738 -0.13424309 -0.1493226 0.11452979 0.24901173
-1.0581738 -0.046236567 0.5487341 0.13965662 0.15222445 0.11566774 0.04883264 0.27081966
-0.17785087 -0.24172053 0.08907941 -0.0025219228 0.24787517 -0.35613963 0.03745599 -0.0521556
-0.31014308 -0.33854395 0.031995878 0.48750272 -0.0096774 0.043704 -0.03273559 -0.2837719
-0.15609427 0.06700742 0.2074339 0.06307604 0.2471523 0.10827774 -0.14959192 -0.28212464
0.11549515 -0.19004937 -0.14444746 0.31879953 -0.30752704 0.1626874 0.07657212 0.04960274
0.054218754 -0.25822607 -0.18372886 0.04749653 0.050773226 -0.29422802 0.12852053 0.24528715
-0.3380313 0.124836884 0.21117175 0.2662313 -0.04066365 0.13116995 -0.035114672 -0.08557657
-0.0010508794 0.31056577 0.24822178 0.4867535 0.29229856 -0.059021764 -0.044932604 -0.33709055
0.6046109 0.60802114 -0.07036299 -0.21911989 0.046446607 -0.032095797 -0.12911074 -0.20447889
00000000: a80a bcbe 00c4 5e3d 85a9 66be 2317 bb3e
00000010: 4e7f 15be 7ce1 babe 400c a9be 91df ad3d
00000020: 9301 99be c2ba 5bbe 495c 86bd 59c9 b5be
00000030: 0d93 0cbe 679b 2d3c 4be4 d7bc e4ac 7f3e
00000040: a223 bbbe 740b c3be c037 203d da69 033e
00000050: 09b5 c03d 6eeb 78be 0862 3bbe 0b00 89bb
00000060: 82c2 c33d 4adf 3b3e 3276 e5be cbf7 bf3e
00000070: 43a3 edbe 3072 1b3d b159 b2bc 38a2 be3d
00000080: 2a0c 16be bd0c 27bd 3f5a 083f 723f cbbc
00000090: 2c20 20bf 59fa 303d 1dba 9d3d b04a 98bd
000000a0: 90c1 443e 82e2 99be 0495 53be 4362 1e3f
000000b0: 1f61 963e d3b0 5fbe d3c9 e9bd 3ef1 21be
000000c0: 9659 9ebe e875 a0bd 7e52 debe 81c9 5ebe
000000d0: 0143 12be 2e4d 82be f0b2 22bd 839d 09bf
000000e0: b66a 1bbf c0e0 943e a8a1 abbc 513b 613e
000000f0: bcb6 743e 3dce 813e 2ca3 563e 0459 a23e
00000100: 630d 723d 435d 843e edbc e0bf 91c7 9fbe
00000110: ed35 993e 2100 e3bc 798e c83e 1174 fe3d
00000120: d02e ddbe 7f14 3abe 478b 86bd b8b7 2e3e
00000130: d49f 083f fcf3 cabe 4ac9 423e 523b 8cbe
00000140: 280c 63be ab28 0cbf 9023 c1bd 2584 23be
00000150: c234 9bbe 3639 393c 8467 d33c b73f 4fbe
00000160: c838 d23d 2802 50be 4238 1dbe 8d24 5ebe
00000170: 8e23 b0bd 45dc 54be 2dd6 0a3e c122 96be
00000180: 3129 32bf 9f97 babd 8c13 793e 6391 403d
00000190: 5a73 9fbe 7fad a1be 4ce0 60be d56f 9cbd
000001a0: 285f efbe 44e6 e4be f115 2c3d 1dca 1c3e
000001b0: fb5d 803d f66c 843e 7d69 e9bd f9cb d4be
000001c0: 52cb 933e 50c2 fdbd de0f 92be 5287 aa3d
000001d0: 91c0 0ebe 09ab d23c 2353 44be 2606 d7bd
000001e0: f946 033d dfdb 78bd ccf8 10bd 5ecc 8cbe
000001f0: 9756 05bf fe21 1f3d 520b 3bbe f06a a43e
00000200: 8049 443d dfa4 0c3c 794b ecbc 9912 56bc
00000210: 3bd6 993e 59b6 6a3c ef4c 19be 43b0 e6bd
00000220: c165 8b3e 3095 913e fac6 bebe 41b9 09be
00000230: d536 3c3e cf86 ebbd 1165 07bf 1a1a c8be
00000240: 8038 17be 9dd3 dabc fe08 783e b39e 9f3e
00000250: 656b 5cbe a54c 2fbf cf51 a1be b0cc c4be
00000260: a51f c23e d76e 4c3d 48d7 903e f86d ffbd
00000270: ff8d 3abe 8a98 f0bc c309 00be e028 41be
00000280: ed35 5c3d e60e b83d eb33 7dbe 0f59 13be
00000290: eb6c 7b3e 14b5 0e3e 9d75 96bc 192f 2fbd
000002a0: 2bd6 aebe c0e0 f23d e6b9 0fbe 3d3f 99be
000002b0: ac51 45bd a74c 043e 042b 94be 98ca ad3e
000002c0: 5d07 70be c7f8 0a3e c874 a23e 60d1 24bd
000002d0: 0577 09be 06e8 18be 988e ea3d eefc 7e3e
000002e0: 3d72 87bf 8e62 3dbd d779 0c3f 2502 0f3e
000002f0: bae0 1b3e 35e3 ec3d bc04 483d e0a8 8a3e
00000300: 8a1e 36be 9685 77be 446f b63d d846 25bb
00000310: fdd2 7d3e ef57 b6be 746b 193d 1ca1 55bd
00000320: 13cb 9ebe a255 adbe 1c0e 033d f599 f93e
00000330: f58d 1ebc f702 333d c115 06bd 8d4a 91be
00000340: 2dd7 1fbe 303b 893d 8d69 543e 032e 813d
00000350: 7e15 7d3e b8c0 dd3d a02e 19be a472 90be
00000360: b988 ec3d 4d9c 42be 09ea 13be b139 a33e
00000370: 2f74 9dbe 8797 263e d8d1 9c3d 3e2c 4b3d
00000380: 7c14 5e3d 3536 84be 6b23 3cbe b98b 423d
00000390: 96f7 4f3d 0ea5 96be e39a 033e 8e2c 7b3e
000003a0: 7012 adbe 7baa ff3d 683d 583e 784f 883e
000003b0: ed8e 26bd 6a51 063e 67d4 0fbd c542 afbd
000003c0: a9bd 89ba 7a02 9f3e da2d 7e3e c137 f93e
000003d0: 28a8 953e cec0 71bd 400b 38bd 2297 acbe
000003e0: c8c7 1a3f 46a7 1b3f 791a 90bd f760 60be
000003f0: cc3e 3e3d e276 03bd 9b35 04be ea62 51be

actor.actor_module.module.2.weight f4 [256, 512]
-0.030352488 0.098561116 0.08634509 -0.047582902 -0.29784203 0.062903926 0.17325336 -0.087390296
-0.04446554 0.049038265 -0.18101037 -0.21772169 -0.055134047 0.019508447 -0.09065453 -0.24363418
0.05898547 0.1853887 0.028654844 0.4397159 0.057982627 0.3877504 0.020795818 -0.23309994
0.16130051 -0.06298431 -0.068437256 0.16970381 -0.037525263 0.12696856 -0.29097804 -0.13827345
0.1632307 0.0738729 0.03644251 -0.03984208 0.12368646 0.07896211 0.025320668 0.043352097
0.19022265 0.31263363 0.04444544 -0.12843703 0.07109472 -0.059660055 -0.05619148 0.11833021
-0.034855057 0.35249212 -0.33414215 -0.10084913 -0.021853982 -0.0018146795 -0.19042233 -0.017644892
-0.010655822 -0.75120705 0.110330716 0.2842511 0.08731217 -0.16220151 -0.044995207 -0.056536157
-0.0970154 0.015892468 0.1565865 0.21068773 -0.01673345 -0.33312285 -0.09254355 -0.08027632
-0.06303621 -0.10787145 0.009386638 0.0028363678 0.19417486 0.048289444 0.06777072 -0.2405988
0.08965785 0.042726163 0.19976747 -0.03778438 0.043193474 -0.12394505 0.032659084 0.10652523
-0.17357011 -0.33288893 0.025010545 -0.17165656 0.28143704 -0.20406955 0.11506762 -0.15224835
0.119045496 0.02932729 0.047466982 0.109587625 -0.0034142148 -0.11993837 -0.36870137 0.08470087
0.18084843 0.120090276 -0.073901 -0.15484034 0.3138473 -0.24917313 -0.038598783 -0.03992206
0.007922787 -0.119718745 0.104210585 0.3790625 -0.13511929 0.030714374 -0.097794525 0.056457214
-0.058639936 -0.05309659 0.115894005 -0.060910285 0.19582361 -0.25216216 0.29376033 0.16111019
0.25369492 0.037061818 0.2658617 0.020231042 0.35903755 0.0045841485 -0.05026906 -0.064903125
-0.04522132 0.023729835 -0.28132832 -0.043377645 0.0067211366 -0.16725376 -0.08455142 0.02478255
0.032769043 0.22866067 0.056684345 0.09662312 0.16714469 0.0172732 -0.05215801 0.05372328
-0.02815417 0.03792518 0.0072103674 -0.10244299 -0.029298425 -0.017017312 -0.07317755 -0.22110899
0.2099156 -0.026743194 0.08790627 -0.22385134 0.061553925 0.07599512 0.28916737 -0.10132862
0.0771708 0.3085575 -0.12937951 -0.1453994 -0.011489018 -0.08627375 -0.114547506 0.15537491
0.2278851 0.16093916 0.34304988 0.28664288 -0.0699626 -0.2574695 0.13999483 -0.13038029
0.05104258 -0.1258256 -0.03374993 0.16541348 0.078125864 -0.10545515 0.032032397 0.030100003
-0.011639768 0.013316486 0.25199354 0.010821224 -0.052472893 -0.015507824 0.111364976 0.034503527
0.022040104 -0.003311333 0.08048208 0.1939315 -0.0030733447 -0.096657835 0.038389575 -0.015633466
0.1805555 0.382701 -0.025106845 0.096473254 0.13319336 -0.17464308 -0.12500165 0.013824111
-0.07600952 -0.20263115 0.054571733 0.08222461 0.14417516 -0.1290578 0.2124841 -0.023515306
0.12191101 -0.020262204 0.058948345 0.10854918 -0.103471026 -0.16840416 0.12814485 -0.08227345
-0.17073728 -0.008824676 0.11511581 -0.19576585 -0.1174588 -0.20807643 -0.16615576 -0.011771869
0.10782 -0.053449016 0.056456406 -0.0069866087 -0.08249629 -0.04436382 0.0679974 0.06037422
-0.13664229 -0.09409393 0.30208284 -0.07847464 -0.2845465 -0.082875736 0.07872985 -0.11219771
00000000: c8a5 f8bc 69da c93d b2d5 b03d 4ae6 42bd
00000010: c07e 98be c6d3 803d 5469 313e aff9 b2bd
00000020: 8021 36bd 59dc 483d c85a 39be 6ff2 5ebe
00000030: 3dd4 61bd 2ed0 9f3c 15a9 b9bd 3d7b 79be
00000040: c09a 713d 89d6 3d3e 90bd ea3c 7122 e13e
00000050: 317f 6d3d 3887 c63e fe5b aa3c c0b1 6ebe
00000060: f62b 253e ebfd 80bd d528 8cbd d6c6 2d3e
00000070: 17b4 19bd 0c04 023e 13fb 94be 8e97 0dbe
00000080: f325 273e ad4a 973d be44 153d 7331 23bd
00000090: 544f fd3d e3b6 a13d 4a6d cf3c f891 313d
000000a0: bac9 423e 8411 a03e 6c0c 363d ff84 03be
000000b0: 1c9a 913d 1a5e 74bd 0a29 66bd 1c57 f23d
000000c0: 2dc4 0ebd d979 b43e ae14 abbe fd89 cebd
000000d0: 1f07 b3bc 8ada edba 12fe 42be 058c 90bc
000000e0: c295 2ebc 1b4f 40bf 12f5 e13d 5c89 913e
000000f0: b9d0 b23d 2718 26be e54c 38bd 7592 67bd
00000100: 03b0 c6bd ec30 823c 3658 203e 86be 573e
00000110: 9714 89bc 148f aabe 7987 bdbd e967 a4bd
00000120: 2119 81bd b5eb dcbd 6aca 193c 5be2 393b
00000130: c6d5 463e 27cb 453d 60cb 8a3d 885f 76be
00000140: 899e b73d a101 2f3d d88f 4c3e cbc3 1abd
00000150: a4eb 303d e7d6 fdbd 88c5 053d e629 da3d
00000160: 5dbc 31be 6b70 aabe eae2 cc3c bdc6 2fbe
00000170: 8418 903e 9cf7 50be 93a8 eb3d fee6 1bbe
00000180: 20ce f33d c93f f03c bd6c 423d 7a6f e03d
00000190: 05c1 5fbb 40a2 f5bd 6dc6 bcbe a677 ad3d
000001a0: 5530 393e e4f1 f53d 6859 97bd 778e 1ebe
000001b0: 98b0 a03e 3e27 7fbe c219 1ebd 5085 23bd
000001c0: 94ce 013c 1a2f f5bd 5c6c d53d 7b14 c23e
000001d0: b65c 0abe b69c fb3c 7f48 c8bd ae3f 673d
000001e0: 6e30 70bd cf7b 59bd d659 ed3d 107d 79bd
000001f0: fc85 483e 661b 81be c167 963e 12fa 243e
00000200: 4de4 813e 22ce 173d 061f 883e 92bb a53c
00000210: c5d3 b73e a036 963b eee6 4dbd eeeb 84bd
00000220: fe39 39bd 1265 c23c 440a 90be c2ac 31bd
00000230: fb3c dc3b 9244 2bbe 4b29 adbd c604 cb3c
00000240: d538 063d 0626 6a3e d82d 683d 58e2 c53d
00000250: fa27 2b3e 8780 8d3c a3a3 55bd f10c 5c3d
00000260: 93a3 e6bc 6f57 1b3d f244 ec3b a1cd d1bd
00000270: 4003 f0bc e467 8bbc 1dde 95bd 656a 62be
00000280: 1df4 563e 8b14 dbbc 3408 b43d 4939 65be
00000290: f81f 7c3d 54a3 9b3d bf0d 943e 6185 cfbd
000002a0: b90b 9e3d 40fb 9d3e 107c 04be 95e3 14be
000002b0: 6f3c 3cbc 4bb0 b0bd e297 eabd 9a1a 1f3e
000002c0: b65a 693e 3ccd 243e 3ca4 af3e dbc2 923e
000002d0: 8d48 8fbd 0bd3 83be ce5a 0f3e 6982 05be
000002e0: 0612 513d 6dd8 00be 5e3d 0abd 2762 293e
000002f0: 7400 a03d dff8 d7bd 6734 033d 4894 f63c
00000300: bab4 3ebc 642d 5a3c 4c05 813e 814b 313c
00000310: d1ed 56bd 8714 7ebc 5213 e43d 9253 0d3d
00000320: 738d b43c f302 59bb cad3 a43d fb95 463e
00000330: 2b6a 49bb 8bf4 c5bd 633e 1d3d c111 80bc
00000340: 8ae3 383e 63f1 c33e dfac cdbc c593 c53d
00000350: d763 083e a3d5 32be 6f00 00be 867e 623c
00000360: e1aa 9bbd 8a7e 4fbe 9c86 5f3d 6065 a83d
00000370: a7a2 133e ba27 04be 6f95 593e 2ca3 c0bc
00000380: 7bac f93d ecfc a5bc d273 713d 084f de3d
00000390: 9ee8 d3bd 2472 2cbe 6738 033e fc7e a8bd
000003a0: c1d5 2ebe 6095 10bc d6c1 eb3d d876 48be
000003b0: 3d8e f0bd fd11 55be bc24 2abe ccde 40bc
000003c0: bbd0 dc3d 5bed 5abd d53e 673d ecef e4bb
000003d0: d1f3 a8bd d6b6 35bd 3942 8b3d f54a 773d
000003e0: f5eb 0bbe 52b4 c0bd 9aaa 9a3e 50b7 a0bd
000003f0: 14b0 91be c1ba a9bd 1e3d a13d eac7 e5bd

actor.actor_module.module.2.bias f4 [256]
-0.11059069 -0.13620888 0.22066872 -0.26329595 -0.16003042 -0.28925973 -0.026496446 -0.19111556
-0.29833698 -0.1621376 -0.060804453 -0.092911646 -0.02718069 0.0078046187 -0.85033196 -0.10772689
-0.38108188 -0.26472583 0.2869949 -0.23268968 -0.07712609 -0.12230512 0.28233826 0.00053743436
-0.3811842 0.08679459 0.017028078 -0.26015168 -0.35003108 -0.27445906 -0.32388023 -0.21683045
0.21131729 -0.13793625 -0.41488984 -0.24799766 -0.23864749 -0.0337097 0.08755086 -0.4137313
-0.19999596 -0.043595303 -0.24822661 -0.090741746 -0.10055789 0.22969384 -0.3114643 -0.21407823
-0.2636511 -0.14070076 -0.16901523 -0.21786974 0.035560522 -0.6103748 0.17998503 0.05231351
0.02166552 -0.18541619 -1.1706454 -0.23682244 -0.45965242 -0.14904898 -0.026406838 -0.07746589
-0.37891203 -0.017798198 -0.14067543 0.15733705 -0.25055435 -0.3323549 -0.08422161 0.24604076
-0.061510224 -0.10942813 -0.57161725 -0.242125 -0.4073415 -0.15016323 -0.24572015 -0.10452498
-0.18935926 -0.12570287 0.10425895 -0.11127437 0.22808854 -0.0055364813 0.07933879 -0.3298107
-0.22811292 -0.055156346 -0.23011498 -0.05704175 -0.3027252 -0.3698268 -0.40634596 -0.23885015
-0.071680285 0.3296578 -0.33180144 0.1534181 -0.37407985 -0.11368088 -0.20880803 0.020319132
-0.048007723 -0.07488537 -0.15858491 -0.17232108 -0.26442093 -0.41323557 -0.13299273 0.11939368
-0.2149516 -0.26878113 0.02782316 -0.2607881 -0.077372536 -0.3221556 -0.19374368 -0.052841183
-0.23125792 0.12863101 -0.0674602 -0.34980077 -0.106677726 -0.35302606 -0.22590165 -0.19417083
-0.1181843 -0.27007657 -0.010437975 -0.3750082 0.031473994 0.44711077 -0.21908936 -0.12091994
-0.9063338 -0.39018586 -0.09663993 -0.15285407 -0.049285654 -0.2732021 -0.4608867 -0.41705698
-0.1857135 -0.4841053 -0.12942673 -0.25487435 -0.014773241 0.03506806 -0.121025056 0.2019128
-0.085509226 -0.16359481 -0.08831932 0.057602763 -0.0032092957 0.063390374 -0.12929581 -0.07170481
-0.3101702 0.0066292635 -0.07139286 -0.1798424 0.05207316 -0.15110372 -0.0039578006 -0.051575527
-0.15798527 -0.09936225 -0.22258815 0.059666052 0.082083546 0.028142821 -0.09835588 -0.2141307
0.058397066 -0.32153618 -0.35233554 0.08774159 0.0044442643 -0.09566474 -0.123098135 -0.17339157
-0.26035976 -0.28993848 0.028559117 -0.20776522 -0.16009761 -0.2123775 -0.20606317 -0.2098852
-0.01630358 0.051536772 -0.25112584 -0.08464347 -0.27579752 -0.07101547 -0.27586162 -0.101071656
-0.1457404 0.93111736 -0.22458377 -0.4105098 -0.1819353 -0.30815417 -0.28537557 -0.4848539
-0.22952858 -0.22752528 -0.191222 -0.2678112 -0.2509481 -0.11344245 -0.33389276 -0.14291705
-0.3381801 -0.4917185 -0.07508128 -0.27439675 -0.110277005 -0.2725896 -0.3945239 -0.31729764
-0.23908025 -0.34262857 -0.23955673 -0.32443115 -0.18764053 -0.38762534 -0.35919687 0.24879447
-0.19868545 -0.25924578 -0.08497091 -0.18585539 -0.22472689 -0.33010146 0.19264522 -0.57512814
-0.29508775 -0.31941816 -0.17801832 -0.23456188 -0.19838901 -0.31683078 -0.091057286 0.018922303
-0.22244301 -0.25390798 0.10145292 -0.17418204 -0.2073211 -0.30209276 0.11516585 -0.16580287
00000000: 5f7d e2bd 577a 0bbe fbf6 613e bace 86be
00000010: 04df 23be da19 94be 130f d9bc ccb3 43be
00000020: a0bf 98be 6607 26be 170e 79bd 7648 bebd
00000030: 0aaa debc e3bd ff3b 5baf 59bf ea9f dcbd
00000040: 2a1d c3be 258a 87be fff0 923e 3446 6ebe
00000050: 49f4 9dbd 1b7b fabd a48e 903e 9ce2 0c3a
00000060: 932a c3be 5dc1 b13d 787e 8b3c 9a32 85be
00000070: 4637 b3be e685 8cbe a1d3 a5be cd08 5ebe
00000080: 8f63 583e 293f 0dbe 716c d4be 19f3 7dbe
00000090: 0260 74be 2f13 0abd de4d b33d 97d4 d3be
000000a0: becb 4cbe fd90 32bd 1e2f 7ebe cfd6 b9bd
000000b0: 4cf1 cdbd dd34 6b3e 4078 9fbe 5337 5bbe
000000c0: 47fd 86be dc13 10be 5412 2dbe 3f19 5fbe
000000d0: e9a7 113d 8641 1cbf ff4d 383e b146 563d
000000e0: e37b b13c bedd 3dbe b5d7 95bf 9581 72be
000000f0: 9057 ebbe 4ca0 18be 2753 d8bc 70a6 9ebd
00000100: c200 c2be 87cd 91bc 380d 10be f71c 213e
00000110: a948 80be 6c2a aabe 617c acbd 1cf2 7b3e
00000120: 25f2 7bbd db1b e0bd 8255 12bf 9eef 77be
00000130: 118f d0be 64c4 19be 109e 7bbe 3111 d6bd
00000140: 65e7 41be 41b8 00be b785 d53d d1e3 e3bd
00000150: 0b90 693e 5f6b b5bb 607c a23d f3dc a8be
00000160: 6f96 69be 9feb 61bd 43a3 6bbe 9ca4 69bd
00000170: ccfe 9abe f059 bdbe 940c d0be 2295 74be
00000180: 1dcd 92bd e8c8 a83e e1e1 a9be a219 1d3e
00000190: 6587 bfbe 85d1 e8bd c6d1 55be 4f74 a63c
000001a0: bfa3 44bd 805d 99bd 1564 22be f074 30be
000001b0: 2e62 87be 9d93 d3be 3f2f 08be ac84 f43d
000001c0: 461c 5cbe ae9d 89be 65ed e33c 0586 85be
000001d0: 7e75 9ebd 94f1 a4be be64 46be ff6f 58bd
000001e0: e0ce 6cbe d9b7 033e 9328 8abd 1619 b3be
000001f0: da79 dabd d5bf b4be c352 67be b8d4 46be
00000200: 9c0a f2bd 7a47 8abe 0a04 2bbc 1301 c0be
00000210: e0ea 003d b4eb e43e f658 60be e0a4 f7bd
00000220: 7e05 68bf 71c6 c7be 28eb c5bd c785 1cbe
00000230: c1df 49bd 25e1 8bbe 57f9 ebbe 7e88 d5be
00000240: ae2b 3ebe a6dc f7be 7188 04be e47e 82be
00000250: 770b 72bc 87a3 0f3d fcdb f7bd 3bc2 4e3e
00000260: 761f afbd 6685 27be c2e0 b4bd e0f0 6b3d
00000270: 0c53 52bb d0d2 813d 1f66 04be f9d9 92bd
00000280: a1ce 9ebe 4b3a d93b 6b36 92bd 9b28 38be
00000290: aa4a 553d efba 1abe 70b0 81bb dc40 53bd
000002a0: e4c6 21be 6f7e cbbd 26ee 63be 6464 743d
000002b0: 6b1b a83d c68b e63c cf6e c9bd 1445 5bbe
000002c0: c331 6f3d 64a0 a4be 5365 b4be ddb1 b33d
000002d0: 31a1 913b e0eb c3bd e01a fcbd 8f8d 31be
000002e0: e04d 85be d172 94be cff4 e93c 68c0 54be
000002f0: a1f0 23be 7d79 59be 3902 53be 25ec 56be
00000300: 168f 85bc 3918 533d 9193 80be 8e59 adbd
00000310: 5535 8dbe 8f70 91bd bc3d 8dbe a8fe cebd
00000320: f93c 15be b55d 6e3f 4af9 65be 572e d2be
00000330: 3f4d 3abe 62c6 9dbe bf1c 92be c53e f8be
00000340: 8a09 6bbe 63fc 68be b3cf 43be 8d1e 89be
00000350: 457c 80be 8454 e8bd fef3 aabe d958 12be
00000360: f125 adbe 87c2 fbbe 37c4 99bd bb7d 8cbe
00000370: e9d8 e1bd dd90 8bbe 09ff c9be d674 a2be
00000380: 74d1 74be 036d afbe 5c4e 75be d71b a6be
00000390: d724 40be d476 c6be a7e8 b7be fac3 7e3e
000003a0: 3374 4bbe ddbb 84be 3a05 aebd e050 3ebe
000003b0: ce1e 66be 0f03 a9be ca44 453e 993b 13bf
000003c0: be15 97be c78a a3be 6f4a 36be fd30 70be
000003d0: 7d26 4bbe a537 a2be 3e7c babd f202 9b3c
000003e0: 1ac8 63be 3a00 82be 8cc6 cf3d c75c 32be
000003f0: fc4b 54be e7ab 9abe 13dc eb3d 3ac8 29be

actor.actor_module.module.4.weight f4 [128, 256]
0.06569618 -0.591137 0.07197567 -0.29804018 0.10586683 0.039681785 0.15618938 0.35572183
0.031468753 0.08485083 0.10905095 -0.21217412 0.14817941 0.36907685 -0.18879676 0.16148752
-1.0415448 0.5247727 0.07859846 -0.28480592 0.06681552 0.03312074 -0.29602125 0.24459022
0.48145723 -0.08589508 0.079607725 0.07376892 -0.28707516 -0.08689133 0.3751976 -0.4713328
0.08384368 -0.111890055 -0.071991466 -0.055841155 0.2652213 0.0024543446 0.17225051 -0.13436334
-0.11614686 0.356446 0.06001754 0.0047792923 -0.48968077 0.024738504 -0.09915682 0.24341439
0.61218864 -0.3961076 0.080481924 -0.6331769 0.28887722 0.411659 -0.13599047 -0.018045986
0.041928407 -0.5301139 -0.23646858 0.231935 -0.08568606 -0.7916545 0.013836729 -1.0723335
0.108679615 -0.008456715 -0.15384452 -0.13831642 0.11615283 -0.36605144 -1.0438658 -0.002855315
-0.15128076 -0.034564257 0.038878273 0.69775534 -0.16029955 -0.04692171 -0.22606632 0.21506698
0.15259789 0.0607595 0.13075477 -0.27273005 -0.028777689 -0.2253231 -0.24186613 0.09454387
0.16725118 0.10908609 0.1735788 0.12539274 -0.253217 0.091990285 -0.12554802 0.34921414
-0.1581381 -0.15217973 0.17938666 -0.37489173 0.20296293 -0.2470749 0.048430026 -0.33629173
-0.04272863 -0.13425165 0.058311548 0.3921517 0.13946465 0.14479546 -0.054174636 0.33913082
0.1400518 -0.102432586 -0.39771768 -0.15390605 -0.40920627 0.15652333 0.076909654 0.046164982
-0.25781083 0.03985416 -0.17064735 -0.011870149 0.0540907 0.026719838 -0.015943224 -0.4162162
0.1338332 -0.6132435 -0.03700334 -0.10005717 -0.32016775 -0.005595164 -0.30076686 0.09168005
0.49789074 -0.1862242 0.15698886 0.08752558 0.27833647 0.056286823 -0.20593755 0.19758862
-0.09049793 -0.11889964 0.21899776 -0.31941262 0.06601227 -0.24532712 -0.4517836 0.2398556
0.079478934 0.019465066 0.076268435 -0.16062775 0.015564585 0.118691124 -0.07057939 -0.013293547
-0.48899683 0.00079371204 0.08118986 0.034374636 0.122659445 0.07976412 -0.13666941 0.3313564
-0.035416685 -0.2567627 -0.058053926 -0.42374805 0.33260587 0.03223417 -0.5098853 -0.122179344
-0.11614068 -0.47236365 0.20427506 0.2623964 -0.06711025 0.1798168 -0.18486944 0.12871148
-0.2918576 0.036832094 -0.11609814 -0.4363614 0.2316463 -0.35385203 -0.17486063 -0.6695436
0.0044223056 0.07386571 -0.1802413 -0.29764017 0.31810504 0.28571555 -0.19070461 0.09458394
-0.09457238 -0.021200353 0.111058734 0.15761559 -0.21631 0.1534845 0.03185995 0.036514893
0.2277132 0.27453378 -0.16510823 0.22562845 -0.4853053 0.09974434 -1.3460355 -0.87207305
0.039609864 -0.27947932 -0.10421677 0.349943 -0.0028410482 0.2413741 -0.069180235 0.73183286
0.06013474 -0.9634894 0.06413189 0.01782617 -0.14125542 0.16638534 0.3810622 0.071621016
-0.22219697 0.09390981 0.19291441 0.4515804 -0.31393617 0.390264 0.011161549 -0.24674098
-0.19118693 0.5339539 -0.85021037 0.020021042 -0.010089072 -0.20549884 -0.43396983 -0.14280131
-0.58444166 0.25375482 -0.393893 0.4842235 0.12801766 0.36116785 -0.05439417 -0.5199596
00000000: b88b 863d c154 17bf fb67 933d b998 98be
00000010: b5d0 d83d 5e89 223d 1cf0 1f3e 2c21 b63e
00000020: 61e5 003d 46c6 ad3d 1b56 df3d 2c44 59be
00000030: 58bc 173e a4f7 bc3e f053 41be fc5c 253e
00000040: 5751 85bf 8157 063f 3bf8 a03d 15d2 91be
00000050: 93d6 883d 9da9 073d 1990 97be dc75 7a3e
00000060: 9081 f63e c2e9 afbd 6009 a33d 2914 973d
00000070: 84fb 92be 15f4 b1bd e619 c03e 8852 f1be
00000080: 3cb6 ab3d 9d26 e5bd 4370 93bd b2b9 64bd
00000090: 16cb 873e 12d9 203b 7062 303e 8b96 09be
000000a0: 68de edbd 1780 b63e f4d4 753d 9c9b 9c3b
000000b0: 70b7 fabe 67a8 ca3c bb12 cbbd 9f41 793e
000000c0: 65b8 1c3f 9ece cabe b5d3 a43d e217 22bf
000000d0: b7e7 933e f8c4 d23e 1641 0bbe 2dd5 93bc
000000e0: 1fbd 2b3d 8bb5 07bf d224 72be 5e80 6d3e
000000f0: 2c7c afbd dfa9 4abf 73b3 623c 3942 89bf
00000100: 6b93 de3d 098e 0abc 6b89 1dbe d2a2 0dbe
00000110: 89e1 ed3d 186b bbbe 659d 85bf 3d20 3bbb
00000120: 58e9 1abe 4093 0dbd d33e 1f3d 18a0 323f
00000130: 9125 24be fb30 40bd ee7d 67be 853a 5c3e
00000140: 9f42 1c3e f4de 783d 94e4 053e 46a3 8bbe
00000150: 30bf ebbc 19bb 66be c1ab 77be 37a0 c13d
00000160: e543 2b3e 8768 df3d a4be 313e f466 003e
00000170: a9a5 81be 6765 bc3d a98f 00be 32cc b23e
00000180: f4ee 21be 01d5 1bbe 23b1 373e cff1 bfbe
00000190: 84d5 4f3e 3401 7dbe 905e 463d 6e2e acbe
000001a0: 3704 2fbd 4479 09be 17d8 6e3d 1cc8 c83e
000001b0: d2cf 0e3e 4345 143e 39e6 5dbd 8ea2 ad3e
000001c0: bd69 0f3e 2dc8 d1bd a7a1 cbbe 8c99 1dbe
000001d0: 7c83 d1be a747 203e cf82 9d3d 7e17 3d3d
000001e0: c8ff 83be 1e3e 233d 2ebe 2ebe 037b 42bc
000001f0: 368e 5d3d 90e3 da3c 5d9b 82bc 4a1a d5be
00000200: 920b 093e 87fd 1cbf d090 17bd c6ea ccbd
00000210: 07ed a3be a357 b7bb 1dfe 99be c0c2 bb3d
00000220: 89eb fe3e 8fb1 3ebe b0c1 203e 9c40 b33d
00000230: 1e82 8e3e 038d 663d 4be1 52be ac54 4a3e
00000240: fb56 b9bd a881 f3bd f340 603e 0d8a a3be
00000250: 7131 873d 0837 7bbe 2e50 e7be b59c 753e
00000260: dac5 a23d 3475 9f3c a032 9c3d 9a7b 24be
00000270: 9a02 7f3c 5514 f33d ed8b 90bd 2dcd 59bc
00000280: cb5d fabe 1d11 503a df46 a63d 6bcc 0c3d
00000290: e034 fb3d 5f5b a33d 11f3 0bbe 8ca7 a93e
000002a0: 1611 11bd 6776 83be f4c9 6dbd 81f5 d8be
000002b0: 514b aa3e fa07 043d d887 02bf 2a39 fabd
000002c0: 2adb edbd a6d9 f1be 7b2d 513e d258 863e
000002d0: 1971 89bd e521 383e 6a4e 3dbe f1cc 033e
000002e0: 5c6e 95be 40dd 163d ddc4 edbd c36a dfbe
000002f0: b034 6d3e 182c b5be aa0e 33be 3667 2bbf
00000300: fde8 903b e846 973d 2d91 38be 4b64 98be
00000310: aade a23e 4f49 923e 1248 43be 3ab5 c13d
00000320: 2aaf c1bd 5dac adbc c372 e33d fb65 213e
00000330: 5e80 5dbe 0a2b 1d3e 947f 023d a490 153d
00000340: a62d 693e b18f 8c3e 2212 29be 250b 673e
00000350: f079 f8be c346 cc3d e44a acbf 2e40 5fbf
00000360: f43d 223d ea17 8fbe 9a6f d5bd bb2b b33e
00000370: e130 3abb c62a 773e 5eae 8dbd 6659 3b3f
00000380: d84f 763d 3ea7 76bf 9557 833d 3008 923c
00000390: 43a5 10be eb60 2a3e 961a c33e 0aae 923d
000003a0: 9a87 63be c953 c03d 5b8b 453e 8c35 e73e
000003b0: 3ebc a0be afd0 c73e eede 363c aba9 7cbe
000003c0: 82c6 43be 34b1 083f 63a7 59bf 2b03 a43c
000003d0: a34c 25bc 4a6e 52be 4b31 debe 823a 12be
000003e0: f89d 15bf 27ec 813e 58ac c9be 25ec f73e
000003f0: 1017 033e feea b83e 6ccc 5ebd 131c 05bf

actor.actor_module.module.4.bias f4 [128]
-0.012389174 1.1090238 0.34549865 -0.18693012 -0.0017129215 0.0040745647 -0.30369845 -0.69131565
-0.21957542 -0.19920465 -0.22056852 -0.05375991 -0.32779154 -0.05434404 -0.20529956 -0.17560841
-0.28384018 -0.06783675 -0.00045197245 -0.09149328 -0.039796937 -0.13942628 -0.56939614 0.028484726
-0.4532433 -0.1668058 -0.05785994 -0.094804294 -0.20662272 0.18778214 -0.17832369 0.3218809
-0.06173254 -0.3401806 -0.43813798 -0.07713827 -0.16048667 -0.34449533 -0.1718897 0.031541977
-0.34884107 0.2366074 -0.0894692 -0.32132116 0.07223237 -0.29185414 -0.09239609 -0.11468295
-0.09230485 0.29404417 -0.33968452 -0.13921116 -0.25994182 -0.43973535 -0.2814313 -0.38897276
-0.23223256 0.07898214 0.022102429 -0.2945418 -0.008279554 -0.057887115 -0.3176271 0.0942965
-0.11881847 0.015236297 -0.5033313 -0.07953752 -0.033785306 -0.2488896 -0.009858319 -0.41481367
-0.2708787 -0.10775133 -0.36498997 0.16898492 -0.006359822 -0.13283604 -0.26248518 -0.6840239
0.1316387 -0.08386918 -0.15842885 -0.34691992 -0.10754847 -0.0014263424 -0.006039194 -0.14341237
0.41387123 -0.012420449 -0.12292875 -0.33682317 -0.42141274 -0.26385581 -0.04081878 -2.156588
-0.55176777 0.117868125 -0.16464159 -0.12544681 -0.035587925 -0.32534254 -0.04775061 0.03129622
-0.10278384 0.0042056274 -0.45453867 -0.47519955 -0.5548797 0.06217654 -0.20656 -0.1360544
-0.46556792 -0.15164956 -0.24353191 -0.13192819 0.36758 -0.43535563 -0.3318719 -0.6897487
-0.14118096 0.09205443 0.2687735 -0.31289285 -0.041168526 -0.11504553 -0.085615456 -0.25301594
00000000: f6fb 4abc 7ef4 8d3f 33e5 b03e 9c6a 3fbe
00000010: 1c84 e0ba ed83 853b 5d7e 9bbe 10fa 30bf
00000020: 61d8 60be 4efc 4bbe b7dc 61be 5a33 5cbd
00000030: 4bd4 a7be db97 5ebd 0c3a 52be b1d2 33be
00000040: 8053 91be feed 8abd b7f6 ecb9 d460 bbbd
00000050: 1d02 23bd c3c5 0ebe f2c3 11bf cd58 e93c
00000060: 810f e8be 24cf 2abe 8bfe 6cbd c128 c2bd
00000070: e894 53be f649 403e 7c9a 36be 93cd a43e
00000080: 43db 7cbd 272c aebe 9f53 e0be abfa 9dbd
00000090: 9e56 24be b161 b0be db03 30be 2932 013d
000000a0: 4c9b b2be 3649 723e a13b b7bd 3584 a4be
000000b0: 91ee 933d e86d 95be 293a bdbd e5de eabd
000000c0: 530a bdbd f58c 963e 21eb adbe 5f8d 0ebe
000000d0: 1817 85be fe24 e1be c317 90be 7027 c7be
000000e0: 5fce 6dbe 63c1 a13d 2710 b53c 2fce 96be
000000f0: f7a6 07bc 0a1b 6dbd 05a0 a2be 861e c13d
00000100: 1957 f3bd a9a1 793c 52da 00bf 91e4 a2bd
00000110: 7662 0abd eadc 7ebe c984 21bc 7562 d4be
00000120: 9db0 8abe bbac dcbd f7df babe 620a 2d3e
00000130: 0e66 d0bb 2c06 08be 7564 86be 311c 2fbf
00000140: 4ccc 063e 9bc3 abbd 2c3b 22be 7d9f b1be
00000150: 5f42 dcbd 1cf4 baba 6ee4 c5bb b1da 12be
00000160: eee6 d33e 247f 4bbc 12c2 fbbd 1674 acbe
00000170: 69c3 d7be 1c18 87be 9831 27bd 8a05 0ac0
00000180: a740 0dbf d864 f13d ce97 28be 2175 00be
00000190: a5c4 11bd 4c93 a6be 2596 43bd 7730 003d
000001a0: 5580 d2bd 5ccf 893b 4bb9 e8be 5b4d f3be
000001b0: 990c 0ebf d4ac 7e3d 7784 53be d851 0bbe
000001c0: eb5e eebe 064a 1bbe 6e60 79be 2f18 07be
000001d0: 7233 bc3e efe6 debe 1deb a9be 5f93 30bf
000001e0: be91 10be 0887 bc3d ae9c 893e 7e33 a0be
000001f0: 54a0 28bd fe9c ebbd 2857 afbd 4e8b 81be

actor.actor_module.module.6.weight f4 [29, 128]
0.15246643 0.015702084 0.09375439 0.039290026 0.059388444 -0.015560967 -0.0012057682 -0.10835974
-0.0095439 -0.015431644 0.08085429 0.049813684 -0.0016692072 -0.056023736 0.15274903 -0.0038394951
0.14625351 0.027071204 -0.10180254 -0.017724525 0.06627856 -0.17688642 0.029482681 -0.038109507
-0.17719701 0.016702529 0.0031837672 0.061651196 -0.14155297 -0.004626227 -0.010168129 0.016463762
-0.09653328 -0.12208623 -0.033017643 -0.00022189028 0.013575725 -0.1323198 -0.1334188 -0.041488934
-0.19164085 -0.017153606 -0.0006994295 0.054566693 -0.03868616 0.17356615 0.004986513 -0.006977692
-0.10067171 0.07958907 -0.06772119 0.14343187 -0.0057231165 0.17547823 -0.1544611 0.008804749
-0.21606226 -0.10535928 0.16518158 0.03473156 0.006318809 0.20727304 0.08983088 -0.022342766
-0.027177868 -0.006580503 -0.0927198 -0.019526267 0.048400056 -0.112268575 0.0033944354 0.03688217
-0.22152826 -0.013119909 0.040978022 0.03526627 -0.018249735 0.050438296 0.09784834 -0.035835378
0.01880046 -0.09884766 -0.056772675 0.18060195 0.038173538 -0.11264899 0.09266468 -0.20791264
-0.004333995 -0.016331015 -0.086383566 0.01285174 -0.17428164 0.037378598 -0.00044449253 -0.16235444
0.013472398 -0.015235694 0.13113846 0.010224921 -0.0054750247 0.16756703 0.08437443 -0.029179575
0.11170963 0.004322113 0.00529886 -0.085813954 -0.11650138 0.01808185 0.15920463 -0.14474043
0.123059556 0.013654517 -0.15823096 -0.014773191 0.01780063 -0.0025540462 0.16817254 -0.08489493
-0.048358705 0.06224655 0.016964652 0.16186157 -0.18198416 -0.0179872 -0.0013257038 0.09079664
0.0010673053 -0.021290423 -0.0039151004 -0.08372473 0.03182574 -0.039234895 -0.0023575663 0.0029348587
-0.0059856107 -0.018418064 -0.029633738 0.0021696705 -0.006287954 -0.008197776 -0.0347454 0.01797593
0.0015666903 0.0034978883 -0.00889841 0.0024866164 -0.002444173 0.080703475 0.0047464175 0.034356788
0.009636815 -0.013622434 -0.0077962857 0.00034993974 0.02747265 0.02408146 0.032459427 -0.0043727737
0.010899538 -0.03876945 0.009297339 0.0022865965 -0.0041346983 -0.0020193672 -0.035882194 -0.036938332
0.014168944 0.043749418 -0.0067680273 0.0017781404 0.009237003 -0.0020431126 0.0027874853 -0.0033251496
0.0020425366 0.010104519 0.018275088 -0.008185565 -0.008447299 -0.024070472 -0.024703886 -0.023841064
0.031858165 0.0048220283 -0.008138964 0.0071717044 -0.00090803 -0.016486518 -0.017540442 -1.76977e-06
-0.03688489 -0.015757382 0.000101525904 -0.019385593 -0.009549815 -0.029546544 0.01778191 0.022736121
0.003897132 -0.01041425 -0.027959028 0.018389383 -0.03646622 0.077150896 0.035806824 0.009527952
-0.042403728 0.00017568326 -0.0013060502 0.0009659884 0.0055277417 0.00019163826 -0.0010836745 0.01635724
-0.0033489445 -0.0065926607 0.016691582 0.018343423 0.020637901 -0.001422379 -0.024200661 -0.04480463
-0.036840186 0.07209969 0.007915624 -0.0054605026 -0.0138401035 -0.034183223 -0.012297534 0.014665988
-0.0059132827 -0.00734984 -0.0094330935 0.01670143 0.0034387528 -0.03409762 -0.0035863381 -0.00289065
-0.071755655 0.024140453 0.025388492 -0.05848316 -0.013403227 0.003050426 -0.0018191342 0.023450991
-0.001004705 -0.019111618 -0.010660709 -0.018729728 0.0028641215 0.021564016 -0.00045652196 0.014355294
00000000: 2920 1c3e a8a1 803c 4d02 c03d 94ee 203d
00000010: 4c41 733d 6df3 7ebc de0a 9eba b6eb ddbd
00000020: 055e 1cbc 02d5 7cbc ef96 a53d 6f09 4c3d
00000030: 4dc9 daba 2579 65bd 3e6a 1c3e 0aa0 7bbb
00000040: 7bc3 153e 6ec4 dd3c da7d d0bd 0633 91bc
00000050: 0ebd 873d b721 35be aa85 f13c b718 1cbd
00000060: 2273 35be bed3 883c c0a6 503b f785 7c3d
00000070: 43f3 10be 9b97 97bb 3998 26bc 03df 863c
00000080: 3eb3 c5bd 5808 fabd 823d 07bd 38ab 68b9
00000090: b86c 5e3c d77e 07be f09e 08be 4df0 29bd
000000a0: 803d 44be b885 8cbc eb59 37ba 5381 5f3d
000000b0: 6175 1ebd 53bb 313e e765 a33b 1fa5 e4bb
000000c0: f82c cebd 98ff a23d 68b1 8abd cedf 123e
000000d0: fb88 bbbb 91b0 333e 0d2b 1ebe cb41 103c
000000e0: 6d3f 5dbe 9bc6 d7bd 5c25 293e ae42 0e3d
000000f0: 030e cf3b 623f 543e 41f9 b73d 2d08 b7bc
00000100: 1fa4 debc 43a1 d7bb e1e3 bdbd 8df5 9fbc
00000110: 233f 463d 11ed e5bd 2d75 5e3b c211 173d
00000120: 4ed8 62be e3f4 56bc 92d8 273d 5d73 103d
00000130: 7880 95bc 6398 4e3d b664 c83d 1ec8 12bd
00000140: 6c03 9a3c a470 cabd 778a 68bd b8ef 383e
00000150: db5b 1c3d 83b4 e6bd fbc6 bd3d 0de7 54be
00000160: 2f04 8ebb 9fc8 85bc dee9 b0bd 1b90 523c
00000170: e376 32be 4d1a 193d c70a e9b9 3e40 26be
00000180: 55bb 5c3c 229f 79bc 2949 063e 6d86 273c
00000190: d667 b3bb b196 2b3e 80cc ac3d 010a efbc
000001a0: 05c8 e43d 83a0 8d3b 0fa2 ad3b 3abf afbd
000001b0: 4798 eebd 6320 943c 8a06 233e d636 14be
000001c0: a606 fc3d 32b7 5f3c 4c07 22be 410b 72bc
000001d0: a0d2 913c c961 27bb 6c35 2c3e 65dd adbd
000001e0: c713 46bd 3df6 7e3d 74f9 8a3c 0abf 253e
000001f0: 0e5a 3abe e459 93bc 3dc3 adba 97f3 b93d
00000200: d3e4 8b3a 4169 aebc 3e4a 80bb df77 abbd
00000210: b55b 023d c5b4 20bd 6681 1abb c256 403b
00000220: f122 c4bb 7be1 96bc 74c2 f2bc 0831 0e3b
00000230: 2e0b cebb f74f 06bc 3151 0ebd 4242 933c
00000240: 6759 cd3a d43c 653b a3ca 11bc 80f6 223b
00000250: 6b2e 20bb dd47 a53d d687 9b3b b4b9 0c3d
00000260: bbe3 1d3c a130 5fbc fc77 ffbb 1e78 b739
00000270: 530e e13c 7b46 c53c 2df4 043d 7c49 8fbb
00000280: fa93 323c b7cc 1ebd de53 183c b9da 153b
00000290: 5d7c 87bb 5c57 04bb 35f9 12bd a64c 17bd
000002a0: dc24 683c 9732 333d 54c6 ddbb 7e10 e93a
000002b0: cc56 173c bee5 05bb 3eae 363b c1ea 59bb
000002c0: 14dc 053b 6d8d 253c a3b5 953c bf1c 06bc
000002d0: 8a66 0abc 702f c5bc ce5f cabc 564e c3bc
000002e0: b57d 023d 1b02 9e3b 4a59 05bc 9e00 eb3b
000002f0: dd08 6eba bc0e 87bc f9b0 8fbc d688 edb5
00000300: 9c14 17bd a015 81bc 4eea d438 89ce 9ebc
00000310: d476 1cbc 980b f2bc 5eab 913c 1a41 ba3c
00000320: 0667 7f3b 88a0 2abc 550a e5bc 55a5 963c
00000330: 9a5d 15bd 4a01 9e3d 2daa 123d 211b 1c3c
00000340: 88af 2dbd 9e37 3839 c62f abba 623a 7d3a
00000350: 0f22 b53b 81f2 4839 150a 8eba 9eff 853c
00000360: f779 5bbb 3f07 d8bb c9bc 883c f244 963c
00000370: d110 a93c 1f6f baba 7740 c6bc 0f85 37bd
00000380: bce5 16bd 01a9 933d 89b0 013c 04ee b2bb
00000390: 9ac1 62bc b503 0cbd 997b 49bc 9d49 703c
000003a0: 36c4 c1bb edd6 f0bb 438d 1abc 70d1 883c
000003b0: b35c 613b f2a9 0bbd c508 6bbb 0f71 3dbb
000003c0: a1f4 92bd 33c2 c53c 87fb cf3c 0a8c 6fbd
000003d0: 3599 5bbc a8e9 473b 0470 eeba 4b1c c03c
000003e0: 4eb0 83ba f88f 9cbc 41aa 2ebc 166f 99bc
000003f0: fcb3 3b3b 05a7 b03c 5759 efb9 7832 6b3c

actor.actor_module.module.6.bias f4 [29]
0.1667023 0.117464714 -0.17022933 -0.5944654 0.5406152 -0.039678223 0.21015596 -0.083169505
-0.09682861 -0.65117 0.47584617 0.02870302 -0.044951845 -0.09539757 -0.67408425 -0.3433708
0.06979852 -0.024656229 -0.050050292 -0.049197428 -0.1020662 -0.07834309 -0.29184377 0.020590441
0.06194452 -0.08203735 0.057259418 -0.09671088 0.098490946
00000000: 02b4 2a3e 5791 f03d 9950 2ebe e22e 18bf
00000010: c265 0a3f a285 22bd 2033 573e c654 aabd
00000020: 144e c6bd 14b3 26bf 1ca2 f33e 9922 eb3c
00000030: 6d1f 38bd cd5f c3bd c990 2cbf 4cce afbe
00000040: 87f2 8e3d dcfb c9bc 8901 4dbd 3e83 49bd
00000050: 1508 d1bd 5872 a0bd 8c6c 95be 49ad a83c
00000060: 89b9 7d3d 3303 a8bd da88 6a3d 5b10 c6bd
00000070: 9fb5 c93d
