my work space/logs/hv-g1-manager/20260114_105729-g1_robust_12000envs_refined_20260114_185724-locomotion/model_04600.onnx (onnx, 956955 bytes, 8 tensors)

actor.actor_module.module.0.weight f4 [512, 100]
0	0x3c819f94	0.015823163
1	0x3d598990	0.053109705
2	0xbc2636fb	-0.010144944
3	0xbba9d1ae	-0.0051824665
4	0x3c214375	0.009842743
5	0xbd92b966	-0.07164268
6	0xbcba3149	-0.02272858
7	0x3c1755dd	0.00923678
8	0xbcae2cfd	-0.021261686
9	0x3ca04281	0.019562962
10	0xbcc7cad6	-0.024388712
11	0x3c8e32ba	0.017358173
12	0x3cb79e90	0.022414476
13	0xbce8323a	-0.028344262
14	0x3b96f4fc	0.004606841
15	0x3b8144b9	0.00394496
16	0xbcb7477c	-0.022372954
17	0xbab37c8e	-0.0013693736
18	0xbceec52d	-0.029146755
19	0xbc81e2a6	-0.015855145
20	0x3d52ecd0	0.051495373
21	0xbcab6df8	-0.02092646
22	0x3c8ba3b6	0.017045837
23	0x3d365ac5	0.04452016
24	0x3cf95230	0.030434698
25	0xbc8c5821	-0.017131867
26	0x3af05810	0.0018336792
27	0x3c5d9ca8	0.013526119
28	0x3c9b53bf	0.018960832
29	0xbe4107ab	-0.18850581
30	0x3e9b1c61	0.3029509
31	0xbd6fa51d	-0.058507074
32	0x3b8590e3	0.0040761097
33	0xbbf53b5d	-0.0074838833
34	0xbcc3d9bb	-0.023907533
35	0xbcb422a9	-0.021989184
36	0xbd0cfd01	-0.03442097
37	0x3ebc0637	0.36723492
38	0xc0151cfe	-2.3298945
39	0x3e84af07	0.25914785
40	0x3e3834dd	0.17988916
41	0xbeea7989	-0.4579585
42	0xbfc704c5	-1.554833
43	0x3f1cda18	0.61270285
44	0x3ffe6967	1.9875916
45	0xbd66165b	-0.056173664
46	0xbe75e0ce	-0.24011537
47	0x3e87d2aa	0.2652791
48	0x3e74540d	0.23860188
49	0xbe04b7fb	-0.12960808
50	0xbe53fcf5	-0.20701964
51	0x3e75c911	0.24002482
52	0x3cc33b59	0.02383201
53	0xbc4fe4ed	-0.0126888575
54	0x3c2a4830	0.010393187
55	0x3c99eb80	0.018789053
56	0x3bdb408d	0.0066910447
57	0xbc1b6a97	-0.009485862
58	0xbcad5766	-0.021159839
59	0xbc54d138	-0.012989335
60	0xbc1da7f3	-0.009622562
61	0x3c90f4f7	0.017694933
62	0x3c6f01aa	0.014587799
63	0x3a817d73	0.0009879306
64	0x3d88acac	0.066735595
65	0x3c3a08a1	0.011354596
66	0x3ec0b565	0.37638393
67	0xbdd467cf	-0.103713624
68	0xbd6e0cfb	-0.058117848
69	0x3d07f1a4	0.03318943
70	0xbaba874b	-0.0014230994
71	0x3eb29490	0.3487897
72	0x3f350b79	0.7072063
73	0x3dd87797	0.10569685
74	0x3c516fce	0.012783004
75	0x3e8e1abd	0.27754775
76	0xbd04138e	-0.03224521
77	0xbde3978e	-0.11112891
78	0xbdf9f4ef	-0.122049205
79	0xbede2f64	-0.4339553
80	0x3e52b483	0.20576672
81	0x3d52b1b4	0.051439002
82	0x3d17121c	0.036882505
83	0xbc262ea9	-0.010142961
84	0x3cc99191	0.024605544
85	0xbd0a04b5	-0.033695895
86	0xbba2c5c6	-0.004967424
87	0xbcaabc13	-0.020841634
88	0xbd2098c2	-0.03920818
89	0x3cd079ae	0.025448646
90	0x3be42a88	0.006963078
91	0x3cbb507e	0.02286553
92	0xbd41b7c1	-0.047294382
93	0x3d43d73e	0.047812693
94	0x3cbb1bf1	0.022840472
95	0x3f66bfd6	0.9013647
96	0x3f6dca60	0.92886925
97	0x3dfaacf4	0.122400194
98	0x3e5a03bd	0.21290489
99	0xbd950efe	-0.0727825
100	0x3d2864ae	0.04111164
101	0x3d58f481	0.052967552
102	0x3cfd5c76	0.030927878
103	0xbd95dc07	-0.073173575
104	0xbdadc554	-0.08484903
105	0x3e6936e0	0.2277484
106	0x3a45c30d	0.00075440184
107	0x3e8b0dd0	0.27158976
108	0xbd722722	-0.05911935
109	0xbca1708e	-0.01970699
110	0xbd0b7b8c	-0.03405337
111	0x3d84f4bc	0.06491992
112	0x3e036a91	0.1283362
113	0x3ca79b68	0.020459846
114	0x3cd075fa	0.02544688
115	0xbd38ea88	-0.04514554
116	0x3bd8e782	0.0066193948
117	0xbcd5e93f	-0.026112197
118	0xbda69fe9	-0.08135969
119	0x3d1e84ad	0.03870075
120	0xbca8a91b	-0.020588448
121	0xbcab0237	-0.02087508
122	0x3db5239b	0.08844682
123	0xbbd5d92d	-0.0065261335
124	0x3d07a3d1	0.033115212
125	0x3db3cf39	0.08779759
126	0xbc9d9fb2	-0.019241188
127	0x3d339742	0.043845423
128	0x3dd376f7	0.10325425
129	0x3ee4aba1	0.44662192
130	0xbd7700fc	-0.060303673
131	0x3db78759	0.089613624
132	0xbe0065ef	-0.12538885
133	0x3db1e5ca	0.08686407
134	0xbdfa7a76	-0.12230389
135	0x3c8726fc	0.016498081
136	0xbd99baf4	-0.075063616
137	0xbef0369c	-0.46916664
138	0xbe4c9a74	-0.19980794
139	0x3ea5758d	0.32316247
140	0xbd26178a	-0.040549792
141	0x3e394827	0.1809393
142	0x3f130f18	0.57444906
143	0xbf236e26	-0.6383995
144	0xbe4df259	-0.2011198
145	0x3d499dc2	0.049222715
146	0xbec27c11	-0.3798528
147	0x3e55108c	0.20807093
148	0xbee18107	-0.44043753
149	0xbee33612	-0.4437719
150	0x3f32d869	0.69861466
151	0xbd32cbe8	-0.04365149
152	0xbeafeee6	-0.34361953
153	0xbc4d940d	-0.012547505
154	0xbd91b633	-0.0711483
155	0xbe0508f7	-0.12991701
156	0x3dbc4b28	0.091940224
157	0x3e30c20f	0.17261527
158	0xbd6a87ee	-0.05725854
159	0x3de8dbe6	0.11370067
160	0xbe8ce1f0	-0.27516127
161	0xbe7b8154	-0.24561054
162	0x3d97877b	0.07398888
163	0xbdf869de	-0.121295676
164	0x3e88c806	0.26715106
165	0xbd9814bc	-0.0742583
166	0xbe03cb9c	-0.1287064
167	0xbf7bf5cf	-0.9842195
168	0xbd8eceef	-0.06973063
169	0x3e7d9cbb	0.24766819
170	0x3e0c1b01	0.13682176
171	0xbe38bb01	-0.18040086
172	0xbee88fce	-0.45422214
173	0xbe6083b1	-0.21925236
174	0x3e649ab6	0.22324643
175	0x3f065871	0.524787
176	0x3e869b01	0.26290134
177	0xbe442e76	-0.19158348
178	0xbec4b623	-0.3842021
179	0x3eaff830	0.3436904
180	0xbe145320	-0.14484835
181	0xbddba8f9	-0.10725588
182	0xbeafbea5	-0.34325138
183	0xbe52f169	-0.20599903
184	0x3e41f687	0.18941699
185	0xbd3ce662	-0.046118148
186	0x3d9873ca	0.0744396
187	0xbd701fc0	-0.05862403
188	0xbedba937	-0.42902538
189	0x3cae4b12	0.02127603
190	0xbcebacc7	-0.02876891
191	0x3d615e70	0.055021703
192	0x3a8f1ba7	0.0010918275
193	0xbcf6ee66	-0.030142974
194	0xbe1db5c2	-0.15401366
195	0xbfe0bda7	-1.7557877
196	0x3f36910a	0.7131506
197	0xbd972a35	-0.07381097
198	0xbee05cb9	-0.43820742
199	0xbc27de4d	-0.010245872
200	0x3d061a91	0.03274018
201	0x3dd3f68f	0.10349762
202	0x3c5e24de	0.0135585945
203	0x3d2eb1d2	0.04265005
204	0x3ca22dc2	0.01979721
205	0x3de095af	0.1096605
206	0xbd8b99f0	-0.068164706
207	0x3ccd331f	0.02504879
208	0xbda8ae5e	-0.08236383
209	0xbbe78bf9	-0.0070662466
210	0x3c88a508	0.016680256
211	0x3d33460f	0.043767985
212	0xbc03b895	-0.008039613
213	0xbc5a651a	-0.013329769
214	0xbbb50908	-0.0055247582
215	0x3cb876f3	0.022517657
216	0x3d8b88eb	0.068132244
217	0x3d74db48	0.059779435
218	0xbcdb8df0	-0.02680108
219	0xbd6c2ba8	-0.05765882
220	0x3d810c27	0.06301146
221	0x3d18273c	0.03714679
222	0x3da9921b	0.082798205
223	0xbd2782cf	-0.040896233
224	0xbd5a2267	-0.053255465
225	0x3df8529b	0.12125131
226	0xbd7df60a	-0.06200222
227	0x3cbe2078	0.023208842
228	0xbd1a1ac9	-0.0376232
229	0x3dce8d03	0.100854896
230	0xbe378781	-0.17922784
231	0x3e563b53	0.20921068
232	0x3d17e476	0.03708311
233	0x3f545650	0.829442
234	0x3f72ed0c	0.94892955
235	0xbd0d7ff5	-0.034545857
236	0xbe0b6a57	-0.13614784
237	0x3e763b9f	0.24046181
238	0x3fb8f713	1.4450401
239	0xbd56b707	-0.052420642
240	0xbd90a2af	-0.070622794
241	0x3f3387ef	0.70129293
242	0xbde6d17d	-0.112704255
243	0xbf342943	-0.7037546
244	0x3e64d102	0.22345355
245	0x3ef8ee25	0.4861919
246	0xbe59ba82	-0.21262553
247	0xbd832295	-0.064030804
248	0xbdf85db0	-0.121272445
249	0xbeb9f15b	-0.36316952
250	0x3ed49779	0.41521814
251	0x3e512ef9	0.20428075
252	0xbd6462cc	-0.055758283
253	0x3dc3d10b	0.09561356
254	0x3d0beba0	0.034160256
255	0x3e0ba752	0.13638046

actor.actor_module.module.0.bias f4 [512]
0	0xbd6dcc11	-0.05805594
1	0x3c6b7df5	0.014373292
2	0xbe6bfbfe	-0.23045346
3	0xbd176ea4	-0.03697075
4	0x3d667f64	0.056273833
5	0xbe5fc205	-0.21851356
6	0xbe115712	-0.14193371
7	0x3e67aa98	0.2262367
8	0x3df65334	0.120275885
9	0xbe45eebc	-0.19329351
10	0xbce6ae3b	-0.028159251
11	0xbe1687e3	-0.14700274
12	0xbd666463	-0.05624808
13	0xbc6f8080	-0.014618039
14	0x3e2a3a75	0.16623862
15	0x3dc8e907	0.098100714
16	0xbdc35248	-0.09537178
17	0xbd910d90	-0.07082665
18	0x3e00b288	0.12568104
19	0x3e3030f4	0.17206174
20	0xbe33e84a	-0.1756908
21	0xbccee55d	-0.025255853
22	0xbe2ef32a	-0.17084947
23	0x3cef2ba6	0.029195618
24	0x3b23d138	0.002499653
25	0x3dbb131e	0.09134506
26	0xbd38796d	-0.045037676
27	0x3e1753a4	0.14778
28	0xbe15b780	-0.14620781
29	0xbdb0ce3d	-0.08633087
30	0x3dd18c05	0.10231785
31	0x3d6828bc	0.056679472
32	0xbdcadcac	-0.09905371
33	0xbd844e6c	-0.0646027
34	0x3e79baec	0.24387711
35	0xbd0cfef5	-0.034422833
36	0xbd9b58d2	-0.075853005
37	0x3e17c82e	0.14822456
38	0x3d24f5bc	0.040273413
39	0x3e064d7a	0.13115492
40	0x3bf04641	0.0073325937
41	0xbe8eab73	-0.2786518
42	0xbd467bbe	-0.048457853
43	0x3e759e0f	0.23986076
44	0x3e28f4d1	0.1649964
45	0xbe687abc	-0.2270307
46	0xbd912fe8	-0.070892155
47	0x3e360d5d	0.17778535
48	0xbd8d8f60	-0.06912112
49	0xbe801662	-0.25017077
50	0xbe9a1752	-0.30095917
51	0x3d3e6dad	0.046491314
52	0xbdae8b0e	-0.08522616
53	0xbe489970	-0.19589782
54	0xbdcbd16f	-0.09952056
55	0xbde7f336	-0.11325686
56	0xbcab0a95	-0.02087907
57	0x3d30145f	0.042988177
58	0x3d2e6416	0.04257592
59	0xbd8e6f01	-0.06954766
60	0x3ea9bf5c	0.33153808
61	0x3e1c7d09	0.15282072
62	0xbe406929	-0.18790115
63	0x3e4e1dc2	0.20128539
64	0xbdc56700	-0.09638786
65	0x3de09f27	0.10967856
66	0xbe1046e6	-0.14089546
67	0xbe85b40d	-0.2611393
68	0x3e5a6b4f	0.21329997
69	0x3d8d7629	0.06907303
70	0x3ea6161e	0.3243875
71	0x3c66c0d9	0.014084064
72	0xbc89f7c8	-0.016841784
73	0x3daab8a5	0.083359994
74	0x3e35a0df	0.17737149
75	0xbdadf021	-0.084930666
76	0x3e48e787	0.1961957
77	0x3d955b4e	0.072928056
78	0x3cbfe979	0.023426758
79	0xbe1b5e64	-0.15172726
80	0xbe912ef8	-0.28356147
81	0x3dcb01e9	0.09912474
82	0xbdcddfc6	-0.10052447
83	0x3ce98f90	0.028510839
84	0xbd2166a4	-0.039404526
85	0xbc75717b	-0.014980669
86	0xbdb4ef3f	-0.08834695
87	0xbd556a7c	-0.052103505
88	0xbd90a10b	-0.070619665
89	0xbe25e3d3	-0.1620019
90	0x3d81d602	0.06339647
91	0x3db43b54	0.088003784
92	0xbd9928e7	-0.07478505
93	0xbe56b72b	-0.2096831
94	0x3d596341	0.05307317
95	0xbe12896d	-0.14310236
96	0xbe16f75d	-0.14742799
97	0x3d3f3d6e	0.046689443
98	0x3deeef2f	0.116667144
99	0x3e2c9dd4	0.16857082
100	0xbcb042c8	-0.021516219
101	0x3d9ac858	0.07557744
102	0xbe3c6e10	-0.1840136
103	0xbdf1e657	-0.11811512
104	0xbe1754e6	-0.1477848
105	0xbc7ab0d9	-0.015300953
106	0xbc4b8703	-0.012422326
107	0xbcd1d6c7	-0.02561511
108	0x3dccd10d	0.10000811
109	0x3da9dc8b	0.08294018
110	0xbe115802	-0.14193729
111	0xbe1678c6	-0.14694509
112	0x3cdf3253	0.027245676
113	0xbd0ce4cc	-0.034397885
114	0xbd6baf12	-0.057540007
115	0x3e0bd588	0.13655674
116	0xbd5e53cc	-0.054279134
117	0x3dbe617e	0.09295939
118	0xbe4f242e	-0.20228645
119	0xbd056a53	-0.0325721
120	0xbda56cda	-0.080774024
121	0xbca88bc5	-0.02057446
122	0xbe8fba09	-0.2807162
123	0xbe9cf7d4	-0.30657828
124	0xbd957ae1	-0.07298828
125	0x3cf002d8	0.029298231
126	0xbd8e55d3	-0.069499634
127	0xbc269b7b	-0.010168905
128	0xbd8b716c	-0.06808743
129	0xbcad91d1	-0.021187695
130	0xbddd2aaa	-0.10799153
131	0xbd8f312c	-0.06991801
132	0x3e3f98e4	0.18710667
133	0x3c14a26d	0.009071928
134	0x3d1e42af	0.038637813
135	0x3bbaf71b	0.005705727
136	0x3e6cdf03	0.23131947
137	0x3e6d1c22	0.23155263
138	0x3d008478	0.031376332
139	0xbdbdd76e	-0.092696056
140	0x3e295cfb	0.16539375
141	0xbda169d5	-0.07881514
142	0xbe33718a	-0.1752378
143	0x3d20e094	0.039276674
144	0xbe16f77f	-0.1474285
145	0x3e0ea471	0.13929917
146	0x3d0bf915	0.03417309
147	0x3e40cfa2	0.18829206
148	0x3d82b765	0.06382636
149	0xbea42a15	-0.32063356
150	0xbe3b15a5	-0.18269975
151	0xbe7e30b4	-0.24823266
152	0x3c85129c	0.016244225
153	0xbd403760	-0.04692781
154	0x3e710386	0.235365
155	0xbd37ec81	-0.044903282
156	0xbe1084fa	-0.14113227
157	0x3dc7d743	0.09757855
158	0xbda9cd3a	-0.08291097
159	0xbe54b596	-0.20772395
160	0xbdd56169	-0.1041897
161	0x3e24acee	0.16081592
162	0x3b4ac8e6	0.0030942499
163	0xbd2f6936	-0.042824946
164	0x3e22dae3	0.15903811
165	0x3e255202	0.16144565
166	0xbd97f4c7	-0.074197344
167	0xbdad0a69	-0.08449251
168	0xbe054225	-0.13013513
169	0x3d767a86	0.06017544
170	0xbe0c8c19	-0.13725318
171	0xbeab1d03	-0.33420572
172	0xbd786442	-0.06064249
173	0x3e26938c	0.16267222
174	0x3dc09cad	0.094048835
175	0x3c35adc1	0.011088789
176	0xbeaec837	-0.34137127
177	0x3e36d8af	0.17856096
178	0x3db267e1	0.087112196
179	0x3d4f5bc4	0.050624624
180	0xbded38da	-0.11583109
181	0x3e021787	0.12704287
182	0xbd266d43	-0.040631544
183	0x3e0b3987	0.13596164
184	0xbe8b5a1d	-0.27217188
185	0x3d5277d0	0.051383793
186	0x3e8b3e09	0.27195767
187	0xbd63a130	-0.055573642
188	0x3d0c9326	0.03432002
189	0x3e243665	0.16036375
190	0x3e6e4517	0.23268543
191	0xbd1952ac	-0.037432358
192	0x3d58034d	0.052737523
193	0xbcbe963a	-0.023264993
194	0x3e1dc68f	0.15407775
195	0x3e1ff063	0.15619044
196	0x3d665d3c	0.05624126
197	0xbe6f8aca	-0.23392788
198	0x3e359c54	0.17735416
199	0x3d203bf1	0.039119665
200	0xbdf842a9	-0.121220894
201	0x3ddb61dd	0.10712025
202	0x3b60be2b	0.0034293036
203	0x3dfdc284	0.123906165
204	0x3d8a87c7	0.06764179
205	0xbce8f7b6	-0.02843843
206	0xbe053ec6	-0.13012227
207	0xbdc20288	-0.09473139
208	0x3d3037d1	0.04302198
209	0x3dd9b50b	0.10630234
210	0xbe7ea134	-0.24866182
211	0x3e02a1be	0.12757012
212	0x3e0dbe66	0.13842162
213	0xbdf02e18	-0.11727542
214	0x3b4c4e81	0.0031174722
215	0xbe89ea00	-0.2693634
216	0x3dcb55b5	0.09928457
217	0xbdf1bc6d	-0.118035175
218	0xbd6f5bf9	-0.05843732
219	0xbc743554	-0.014905293
220	0xbe00483c	-0.12527555
221	0xbc99749e	-0.018732365
222	0x3d89e934	0.06733933
223	0xbc9f752e	-0.019465055
224	0x3a1f6083	0.000607975
225	0xbdd8963d	-0.10575531
226	0xbe03a259	-0.128549
227	0x3e32d5eb	0.17464416
228	0xbe811f6f	-0.25219294
229	0xbd8dd665	-0.06925658
230	0xbd2d8f0c	-0.04237275
231	0xbd6457b8	-0.055747718
232	0xbe24ca22	-0.16092733
233	0x3d962e02	0.07332994
234	0x3e61d03b	0.2205209
235	0xbd81b957	-0.06334179
236	0x3df70a8c	0.120625585
237	0x3e8ad40e	0.2711491
238	0xbdcf3763	-0.10117986
239	0x3e0ce508	0.13759243
240	0xbde46dd3	-0.1115376
241	0x3d8e129c	0.06937143
242	0x3d2748cd	0.040840913
243	0x3ec05ccf	0.37570807
244	0x3def490b	0.11683854
245	0xbe541865	-0.20712431
246	0x3b29f3a9	0.0025932586
247	0x3dc0ddc5	0.09417299
248	0x3e70d68b	0.23519342
249	0x3dee4683	0.11634543
250	0x3dfa913e	0.12234734
251	0xbde40bec	-0.111350864
252	0x3dee83ba	0.116462186
253	0xbddff4be	-0.10935353
254	0x3ca1ba19	0.019742059
255	0xbd969f66	-0.073546216

actor.actor_module.module.2.weight f4 [256, 512]
0	0x3d3c93c5	0.04603936
1	0xbdcf1338	-0.101110876
2	0x3d875ab4	0.06609097
3	0xbc1fc828	-0.009752311
4	0x3e0aabdf	0.13542126
5	0xbce9db27	-0.028546883
6	0x3df5fd80	0.12011242
7	0xbda69b56	-0.08135097
8	0xbe31b36d	-0.17353602
9	0x3e3c6eca	0.18401638
10	0xbda5deca	-0.08099134
11	0x3df06369	0.11737711
12	0xbdc37592	-0.09543909
13	0xbdd6819c	-0.1047394
14	0xbd6a815a	-0.057252266
15	0x3db46735	0.08808748
16	0xbe2b0967	-0.16702805
17	0x3e82871c	0.25493705
18	0xbdc5472f	-0.09632718
19	0x3ec3875c	0.38189209
20	0x3d212499	0.039341543
21	0xbd8145e3	-0.06312158
22	0x3c93de5f	0.01805037
23	0xbdb6dfa6	-0.08929376
24	0xbcbd3f8b	-0.023101589
25	0xbd4d9ad1	-0.050196473
26	0xbc8673ac	-0.016412579
27	0x3d36ed6c	0.044660017
28	0x3de49d58	0.111628234
29	0xbd80633c	-0.062689275
30	0xbbc74f71	-0.006082468
31	0xbdbdf461	-0.09275127
32	0xbdb31513	-0.08744254
33	0x3b1bb14c	0.00237568
34	0x3e261a5d	0.16220994
35	0xbd712240	-0.058870554
36	0xbc56036c	-0.013062339
37	0xbda71eed	-0.081601955
38	0xbd670fcc	-0.05641155
39	0xbda63e74	-0.08117381
40	0x3d870618	0.06592959
41	0xbb97b368	-0.004629541
42	0xbe39f865	-0.18161161
43	0xbd35b744	-0.04436423
44	0xbcbbc560	-0.022921264
45	0x3c8c159c	0.017100148
46	0xbda2dac9	-0.07951886
47	0xbd95122b	-0.07278856
48	0xbdc3e5f6	-0.09565346
49	0xbd2fa651	-0.04288322
50	0xbe0d4bc6	-0.13798437
51	0xbe22accb	-0.15886228
52	0xbd66d0c3	-0.056351434
53	0x3e0c8927	0.13724194
54	0x3d090d91	0.033460204
55	0x3ddf9db4	0.10918751
56	0x3bcf4caf	0.00632628
57	0xbd0f9fdb	-0.03506456
58	0xbd678e71	-0.056532327
59	0x3e295d66	0.16539535
60	0x3cfe0135	0.031006435
61	0xbcaa5f58	-0.020797417
62	0x3d5465c3	0.05185486
63	0xbd8be498	-0.0683071
64	0xbe60d931	-0.21957852
65	0x3d06b6d8	0.032889217
66	0x3a1ac0be	0.00059033546
67	0x3dceed74	0.10103884
68	0x3d8cc51d	0.06873534
69	0xbe997bf8	-0.29977393
70	0x3b97be51	0.004630842
71	0xbc2a337d	-0.010388252
72	0x3d8cb9a3	0.06871345
73	0x3cf25c7d	0.029585117
74	0x3b34748b	0.0027535285
75	0x3d28167f	0.04103708
76	0x3e0305fb	0.1279525
77	0xbc4d9690	-0.012548104
78	0x3d011b25	0.031520028
79	0xbe5e5611	-0.21712519
80	0xbc8cd57d	-0.017191643
81	0xbce03104	-0.027367122
82	0x3cb2b75d	0.02181595
83	0x3cb11789	0.021617668
84	0xbe48d448	-0.19612229
85	0x3c390871	0.0112935165
86	0xbad659e1	-0.001635369
87	0xbd9d5192	-0.07681574
88	0xbdb876fc	-0.090070695
89	0x3dd8db0b	0.10588654
90	0x3c01c8a6	0.0079213735
91	0xbd330b15	-0.04371174
92	0x3dc77997	0.09739988
93	0x3d86e2f5	0.06586257
94	0x3d12cdfd	0.035840977
95	0x3db66310	0.089056134
96	0xbd13c6cd	-0.036078263
97	0x3e007f65	0.12548597
98	0xbbaf2d05	-0.005345943
99	0x3d20ea9a	0.039286233
100	0xbd909701	-0.07060052
101	0xbd63c00e	-0.05560308
102	0xbe94399d	-0.28950205
103	0xbc770be3	-0.015078518
104	0x3dc06b42	0.09395458
105	0x3e0044e3	0.12526278
106	0xbdc97dd3	-0.09838452
107	0x3e11a585	0.14223297
108	0xbe31caa0	-0.17362452
109	0x3d442fdf	0.047897216
110	0x3d8ce320	0.06879258
111	0x3ccd03e1	0.025026264
112	0x3d0bffa1	0.034179334
113	0xbd7c230b	-0.061556857
114	0x3baa3180	0.005193889
115	0x3db527ed	0.08845506
116	0xbdc193ef	-0.09452044
117	0x3dbfd124	0.09366062
118	0x3c7aa577	0.015298239
119	0xbdf23a47	-0.11827522
120	0x3d47b0dc	0.04875265
121	0x3ced2ff0	0.028953522
122	0xbd15fa27	-0.036615517
123	0x3cff1d09	0.031141775
124	0xbd7f8853	-0.06238587
125	0xbdc6fcd3	-0.09716191
126	0xbda17881	-0.078843124
127	0xbd2c94dc	-0.04213415
128	0x3daa4bc7	0.08315235
129	0x3db42070	0.087952495
130	0xbc01db44	-0.007925812
131	0xbdae7549	-0.08518464
132	0xbd0c302e	-0.034225635
133	0xbaf3e95f	-0.0018608979
134	0xbd447bdd	-0.047969688
135	0xbda929fc	-0.08259961
136	0x3d9ac586	0.07557206
137	0xbc97d827	-0.018535687
138	0xbe0c7568	-0.13716662
139	0x3d7b4cce	0.061352544
140	0x3dc394c3	0.095498584
141	0xbe5cd703	-0.21566395
142	0x3e00458a	0.12526527
143	0xbe4631ce	-0.19354936
144	0xbda50523	-0.080576204
145	0xbdb5a3c1	-0.08869124
146	0x3de97e35	0.11401025
147	0x3dde2be3	0.108482145
148	0x3d325626	0.04353919
149	0x3d2b922b	0.041887444
150	0xbd87f58d	-0.06638632
151	0xbaf82b21	-0.0018933752
152	0x3ca23b72	0.019803736
153	0x3e20306f	0.15643476
154	0xbde2cf5a	-0.110747054
155	0xbc959d7a	-0.018263567
156	0x3d5403d4	0.051761463
157	0x3b37d4ed	0.0028050498
158	0xbd04d8ec	-0.032433435
159	0xbe22f858	-0.15915048
160	0xbc636f6c	-0.0138815455
161	0xbd5d8ba6	-0.054088257
162	0xbdb74f5f	-0.08950686
163	0xbe3e0996	-0.18558344
164	0x3ce6f399	0.028192328
165	0x3c699906	0.014257675
166	0xbca6f8e4	-0.020382352
167	0xbb0bbfed	-0.0021324113
168	0x3c745925	0.014913832
169	0xbd7207f1	-0.059089605
170	0xbae1cba4	-0.0017226827
171	0xbe93a2a8	-0.28835034
172	0xbdb35ef3	-0.087583445
173	0x3ccfac31	0.025350662
174	0xbdb3952f	-0.08768689
175	0x3c48127b	0.012211437
176	0xbd895477	-0.067055635
177	0x3daf1671	0.08549202
178	0x3e15fd49	0.14647402
179	0xbca220b6	-0.019790988
180	0xbe20c42b	-0.15699832
181	0x3eb08028	0.34472775
182	0x3b2779e4	0.002555483
183	0x3e2bd24f	0.16779445
184	0x3e0e22ef	0.13880514
185	0xbda467c7	-0.080276065
186	0xbd60086e	-0.05469554
187	0x3d7c9f6b	0.06167547
188	0x3de57bd3	0.11205258
189	0xbdc0db63	-0.09416845
190	0xbd88725c	-0.06662437
191	0xbb495dbd	-0.0030726038
192	0xbccf7f72	-0.025329325
193	0x3ccca332	0.024980161
194	0xbd61c814	-0.05512245
195	0xbd1e4db8	-0.038648337
196	0x3e1b3d3d	0.1516008
197	0x3e3b5dac	0.18297452
198	0x3df96c05	0.12178806
199	0xbc4d61e8	-0.01253555
200	0xbd704162	-0.058656104
201	0xbd8c6fcd	-0.06857262
202	0x3e0e6079	0.13903989
203	0x3da5ff6a	0.08105357
204	0xbd0a9a84	-0.033838764
205	0xbe0c71a8	-0.13715231
206	0xbdf48814	-0.11940017
207	0x3d170bdc	0.036876544
208	0x3d8c7636	0.068584844
209	0xbda239aa	-0.07921155
210	0x3ded5474	0.11588374
211	0xbdc59e6c	-0.09649357
212	0x3e7a14fd	0.24422069
213	0xbebbbc9d	-0.36667338
214	0x3dd44436	0.10364573
215	0xbe8537b7	-0.2601907
216	0xbdec2def	-0.11532199
217	0xbd9afc86	-0.07567696
218	0x3c819e77	0.015822632
219	0x3e308746	0.17239103
220	0x3d4f0b72	0.050548024
221	0x3cfe24c9	0.0310234
222	0xbe308d71	-0.17241456
223	0xbd329c12	-0.04360587
224	0xbdb7c859	-0.0897376
225	0xbb9b8938	-0.0047465824
226	0x3c8650c5	0.016395936
227	0xbcbc103f	-0.022956965
228	0xbe2ce65a	-0.16884747
229	0xbd6aa1c6	-0.057283185
230	0x3df4029e	0.11914562
231	0xbc2ba9a0	-0.0104774535
232	0xbd10796d	-0.03527205
233	0x3bbf884c	0.0058451053
234	0xbd4bf049	-0.0497897
235	0xbc9f1651	-0.019419821
236	0x3d370d29	0.044690285
237	0x3b8cf643	0.0043018176
238	0x3dba4286	0.090947196
239	0xbd603bef	-0.054744657
240	0x3d84c437	0.064827375
241	0x3d83fa00	0.06444168
242	0xb9a40260	-0.00031282287
243	0xbb88b29a	-0.0041716816
244	0x3d581716	0.05275639
245	0x3d45c71c	0.04828559
246	0xbd645555	-0.05574544
247	0xbd0e2743	-0.03470541
248	0xbda68176	-0.081301615
249	0xbd041089	-0.03224233
250	0x3c59e260	0.013298601
251	0xbc75c68c	-0.015000951
252	0xbcd73deb	-0.026274642
253	0xbd1c3d17	-0.038144197
254	0x3d2a93af	0.04164475
255	0xbda28303	-0.07935145

actor.actor_module.module.2.bias f4 [256]
0	0x3d04b62b	0.03240029
1	0xbcecfb7f	-0.028928516
2	0xbd9d8d72	-0.07692994
3	0xbe04ac80	-0.12956429
4	0xbd8b4a44	-0.068012744
5	0xbde9318e	-0.11386405
6	0xbccf6229	-0.025315361
7	0xbe4fe035	-0.20300372
8	0xbea7bcef	-0.32761332
9	0xbda894f0	-0.082315326
10	0xbcf2f50b	-0.029657861
11	0xbe57c8d2	-0.210727
12	0x3cb033df	0.021509109
13	0xbcb1c9fb	-0.021702757
14	0xbf2bfc55	-0.67181903
15	0xbd48cf12	-0.049025603
16	0xbe8ad857	-0.2711818
17	0xbe8a8e9b	-0.27061924
18	0x3cc5eeb8	0.024161682
19	0xbe3c4b1e	-0.1838803
20	0xbdb033de	-0.08603643
21	0xbc3688a0	-0.011140972
22	0x3d333f5f	0.043761607
23	0xbd614151	-0.05499393
24	0xbe58352b	-0.21114032
25	0xbc0b19de	-0.008490054
26	0xbe17e7cd	-0.14834519
27	0xbe1f1bdc	-0.15537971
28	0xbe3cb982	-0.1843014
29	0xbe1fb551	-0.1559651
30	0xbe630894	-0.22171241
31	0xbca8689b	-0.020557692
32	0xbd6b9b5f	-0.05752122
33	0xbe1e25eb	-0.15444152
34	0xbe474b05	-0.19462211
35	0xbe417c97	-0.18895184
36	0xbe26d416	-0.16291842
37	0xbe31ee96	-0.1737617
38	0xbc0ec9e9	-0.008715131
39	0xbe9abb15	-0.30220857
40	0xbe51a4db	-0.20473044
41	0xbd5373e9	-0.051624212
42	0xbe218dc5	-0.15776737
43	0xbe10e299	-0.1414894
44	0xbd77f1e6	-0.060533427
45	0xbca59698	-0.02021341
46	0xbe533089	-0.20623983
47	0xbe0c69ef	-0.13712285
48	0xbe5f3941	-0.21799184
49	0xbdd1ed6f	-0.10250365
50	0xbdae7e5f	-0.08520197
51	0xbd6ac1a2	-0.05731357
52	0xbd54b082	-0.051926143
53	0xbecbd57b	-0.3981131
54	0x3d3d94f7	0.046284642
55	0xbd84ea33	-0.064899825
56	0xbc9fcaea	-0.019505937
57	0xbdbd75c7	-0.0925098
58	0xbfb2649d	-1.3936955
59	0xbde10d43	-0.109888576
60	0xbe91ccc4	-0.28476536
61	0xbd648327	-0.05578914
62	0xbd4ff163	-0.050767314
63	0xbb89ef90	-0.0042094663
64	0xbe6b92b5	-0.23005183
65	0xbd92a7e6	-0.0716093
66	0xbd0cde59	-0.034391735
67	0xbd8137d6	-0.06309478
68	0xbdde1fea	-0.10845931
69	0xbec60d30	-0.38681936
70	0xbe2086d2	-0.1567643
71	0x3c941c41	0.018079879
72	0xbd94e1d9	-0.072696395
73	0xbddff50a	-0.10935409
74	0xbe9864de	-0.29764456
75	0xbd90f3ab	-0.07077726
76	0xbe52f24f	-0.20600246
77	0xbdee48c2	-0.11634971
78	0xbd837165	-0.06418113
79	0xbdefea88	-0.11714655
80	0xbe4d3111	-0.20038249
81	0x3c7c4e1a	0.01539948
82	0x3df9ed50	0.12203467
83	0xbddca9b9	-0.107745595
84	0x3d37ecfa	0.044903733
85	0xbac8793a	-0.0015294917
86	0xbcba93eb	-0.02277561
87	0xbe101eb9	-0.1407422
88	0xbdde44c2	-0.10852958
89	0xbdae3f8d	-0.08508215
90	0xbd8b6577	-0.06806462
91	0xbda91cf3	-0.08257475
92	0xbe51f341	-0.2050295
93	0xbe410fd9	-0.18853702
94	0xbe6fea25	-0.23429163
95	0xbe060c4f	-0.13090633
96	0x3ae50b75	0.0017474728
97	0xbd567fdb	-0.052368026
98	0xbe46ce17	-0.19414555
99	0xbdabaca9	-0.08382542
100	0xbe2f17dc	-0.17098945
101	0xbd81c197	-0.063357525
102	0xbdcb32b4	-0.0992178
103	0xbd155898	-0.036461443
104	0xbe2061d0	-0.15662313
105	0xbe4b2a10	-0.19840264
106	0xbe579327	-0.21052228
107	0xbdb8012a	-0.08984597
108	0xbe5c8c1e	-0.21537825
109	0xbe7de16c	-0.24793023
110	0xbdd7435d	-0.105108954
111	0x3dfe0173	0.1240262
112	0xbe40f664	-0.1884399
113	0xbe86151e	-0.26187986
114	0xbd43a636	-0.047765933
115	0xbe02725f	-0.12738942
116	0x3c7127a6	0.014718926
117	0xbe2b374a	-0.1672031
118	0xbe078bab	-0.13236873
119	0xbd5fe147	-0.0546582
120	0xbe54c408	-0.20777905
121	0xbcd6c200	-0.026215553
122	0xbd13fcb8	-0.036129683
123	0xbe6ee5a2	-0.23329785
124	0xbd5934d8	-0.05302891
125	0xbe0fe023	-0.14050345
126	0xbe28aeb3	-0.16472892
127	0xbdcb5e1c	-0.09930059
128	0xbdbb5953	-0.091478966
129	0xbdc18397	-0.09448927
130	0x3d3a6047	0.045501973
131	0xbe6070b4	-0.21917993
132	0xbd3ff264	-0.04686202
133	0x3e3f68f6	0.18692383
134	0xbe5c2fc4	-0.21502596
135	0xbdee03ce	-0.116218194
136	0xbf04e133	-0.51906127
137	0xbe480f03	-0.19536977
138	0x3d1a285f	0.037636157
139	0xbd9a679a	-0.07539292
140	0xbc825736	-0.015910726
141	0xbe05e602	-0.13076022
142	0xbeab2ef3	-0.33434257
143	0xbe974e57	-0.29551956
144	0xbd1e4b24	-0.03864588
145	0xbe798d03	-0.24370198
146	0xbe0dd37d	-0.13850208
147	0xbe17e1c5	-0.14832218
148	0xbdc7f606	-0.09763722
149	0xbc45bccc	-0.012068938
150	0xbdcbb768	-0.09947091
151	0x3d87353d	0.06601951
152	0xbdf19977	-0.11796849
153	0x3bf575c0	0.0074908435
154	0xbe171677	-0.14754663
155	0x3e28700c	0.16448992
156	0xbe209726	-0.15682659
157	0xbe03cbb1	-0.12870671
158	0xbdf48718	-0.119398296
159	0xbd81f8bf	-0.06346273
160	0xbedb3be0	-0.42819118
161	0x3d45e3f5	0.0483131
162	0xbd8b75fd	-0.06809614
163	0xbe0ab95c	-0.13547271
164	0x3d81f1f1	0.06344975
165	0xbe5b1445	-0.21394451
166	0xbc83e668	-0.016101077
167	0xbcccd4d7	-0.025003834
168	0xbdd760bd	-0.10516498
169	0xbd4b24ca	-0.04959563
170	0xbe777cd9	-0.2416872
171	0xbd6113d9	-0.05495057
172	0x3dbcadd8	0.092128456
173	0x3e1ea2df	0.15491818
174	0xbdbecc6f	-0.09316336
175	0xbdb7761d	-0.08958075
176	0xbd601e41	-0.054716352
177	0xbe72a6ac	-0.23696393
178	0xbe5ca6e3	-0.21548037
179	0x3e05cfdd	0.13067575
180	0x3b47d16b	0.0030489813
181	0xbe2de27b	-0.16980927
182	0xbe022edc	-0.12713188
183	0xbd871231	-0.065952666
184	0xbe55dcb5	-0.20884974
185	0xbdc702d8	-0.09717339
186	0xbbba08d5	-0.0056773224
187	0xbda6146d	-0.08109365
188	0xbe09d85c	-0.13461441
189	0xbea92522	-0.33036143
190	0xbda2a41f	-0.0794146
191	0xbe6a76b7	-0.22896849
192	0x3d6729b4	0.056436256
193	0xbbeb0781	-0.0071725254
194	0xbe0848ae	-0.13308975
195	0xbd40d448	-0.047077447
196	0xbe6ad48e	-0.22932646
197	0xbd9a60ec	-0.07538018
198	0xbe1214ca	-0.14265743
199	0xbe3cf1b7	-0.18451582
200	0xb92919bb	-0.00016126681
201	0x3bea6f72	0.0071543986
202	0xbe17b7d7	-0.14816223
203	0xbe8a9ab9	-0.2707117
204	0xbe37c3a1	-0.1794572
205	0xbe4c48d5	-0.19949658
206	0xbe6c81ec	-0.23096436
207	0xbe8be14d	-0.27320328
208	0xbd06f215	-0.03294571
209	0xbd1df106	-0.038559936
210	0xbe4b83a6	-0.19874439
211	0xbdf40a0e	-0.1191598
212	0xbe0f43ec	-0.13990754
213	0xbdf727d9	-0.12068147
214	0xbdf082b4	-0.1174368
215	0xbdf60761	-0.12013126
216	0xbe43b994	-0.19113761
217	0xbec5f560	-0.3866377
218	0x3d51064d	0.0510314
219	0xbe86dc57	-0.2633998
220	0xbe14f0fe	-0.14545056
221	0xbdc849fd	-0.09779737
222	0xbe5e0623	-0.21682028
223	0xbe27d483	-0.1638966
224	0xbe1f95bf	-0.15584467
225	0xbe73beaa	-0.23803201
226	0xbe3ae567	-0.18251573
227	0xbe444929	-0.19168533
228	0xbe4a8d49	-0.19780459
229	0xbea67e9c	-0.3251847
230	0xbe60f4a3	-0.21968322
231	0x3c426403	0.011864665
232	0xbe200288	-0.15625966
233	0xbe5ac017	-0.21362339
234	0xbcb6c880	-0.022312403
235	0xbd523664	-0.051321402
236	0xbe0cfa2d	-0.1376731
237	0xbe434cab	-0.19072215
238	0xbce1e8e7	-0.027576877
239	0xbe8dad5f	-0.27671334
240	0xbe4d8717	-0.20071064
241	0xbe803e1b	-0.25047383
242	0xbe42cb0d	-0.1902277
243	0xbdcf67bc	-0.10127208
244	0xbdce115d	-0.100619055
245	0xbe2ed890	-0.170748
246	0x3d2fe75c	0.04294525
247	0xbd9227e4	-0.07136515
248	0xbe983763	-0.29729757
249	0xbe1d7f7f	-0.15380667
250	0xbee5df1f	-0.4489679
251	0xbdc90ee4	-0.09817293
252	0xbdf7055b	-0.12061568
253	0xbe5de7a5	-0.21670397
254	0xbdb2076f	-0.08692824
255	0xbcf34aa7	-0.029698683

actor.actor_module.module.4.weight f4 [128, 256]
0	0xbe30525c	-0.17218918
1	0xba9c46a9	-0.0011922914
2	0x3e013181	0.1261654
3	0x3d9e9d3b	0.07744833
4	0x3e29328d	0.1652319
5	0x3e3b9caa	0.18321481
6	0xbe0eeeb9	-0.13958253
7	0xbe0a54e8	-0.13508952
8	0xbd0f66b2	-0.035010047
9	0xbd62d429	-0.055378113
10	0x3d280231	0.041017715
11	0xbd6452ed	-0.055743147
12	0xbe280825	-0.16409357
13	0xbb1c71f3	-0.002387163
14	0xbcf3bf1f	-0.02975422
15	0x3e3537bc	0.17697042
16	0xbd67044c	-0.056400582
17	0xbd4498a3	-0.04799713
18	0x3d1e0b37	0.038584914
19	0xbe8031c9	-0.25037983
20	0x3dd667e7	0.104690365
21	0xbd5ab3ba	-0.053394057
22	0xbe3a3911	-0.18185832
23	0xbc03ee01	-0.00805235
24	0x3ddaa8f8	0.106767595
25	0xbd5cbcca	-0.05389098
26	0xbe0424cd	-0.12904663
27	0xbc28049a	-0.010255003
28	0x3c9634c1	0.018335702
29	0xbb2279b8	-0.0024791788
30	0x3e2a3324	0.16621071
31	0xbe575d50	-0.2103169
32	0xbde749e8	-0.112933934
33	0x3e415f2c	0.18883961
34	0x3e733aa0	0.23752832
35	0x3d4d764a	0.050161637
36	0xbd57ba83	-0.052668106
37	0x3e891521	0.26773933
38	0x3c2ca33e	0.010536967
39	0x3e0192bb	0.1265363
40	0xbe62f676	-0.2216433
41	0x3ce48be7	0.027898742
42	0x3ac28d05	0.0014843052
43	0xbd9d0918	-0.0766775
44	0xbe699609	-0.2281114
45	0x3cca5e1f	0.024703084
46	0xbda6ffed	-0.08154283
47	0x3e11fcd4	0.14256603
48	0x3d90f585	0.07078079
49	0xbe4c9aca	-0.19980922
50	0x3b31015d	0.002700887
51	0x3e2a6597	0.16640316
52	0x3e0799ac	0.13242215
53	0x3d88274b	0.066481195
54	0xbce58d58	-0.0280215
55	0x3e012387	0.12611209
56	0xbe8515b2	-0.25993115
57	0xbd51be7a	-0.051207043
58	0xbd457490	-0.048206866
59	0x3dd00458	0.101570785
60	0xbd277a4a	-0.04088811
61	0xbe059407	-0.13044749
62	0xbe3dad08	-0.18523037
63	0xbe131b3b	-0.14365856
64	0x3d641bf9	0.05569074
65	0xbdbee0a6	-0.09320192
66	0xbc677926	-0.014128005
67	0xbe4dbb09	-0.2009088
68	0xbe169693	-0.14705877
69	0xbdc337a2	-0.095320955
70	0xbe2bd6b1	-0.16781117
71	0x3d4a3d12	0.049374647
72	0xbd92065c	-0.07130119
73	0x3d996745	0.074904
74	0x3c2639e9	0.010145643
75	0x3e2f74ba	0.17134371
76	0x3ce646d3	0.028109943
77	0xbdcc4502	-0.099741
78	0xbb948e3d	-0.0045335577
79	0x3d926b80	0.0714941
80	0xbe73a7ce	-0.23794481
81	0xbe81a861	-0.25323775
82	0xbb25e72a	-0.0025314786
83	0x3d9c1b65	0.076224126
84	0x3d93111b	0.07180997
85	0x3ca78d1f	0.020453034
86	0xbd6bce5c	-0.057569847
87	0x3db921df	0.090396635
88	0x3eb33e57	0.350085
89	0xbc89b0c3	-0.01680792
90	0x3dab98ac	0.08378729
91	0x3db7d8f7	0.0897693
92	0x3c7aed00	0.015315294
93	0xbac44996	-0.0014975544
94	0xbd9cf7f3	-0.0766448
95	0xbc0649c6	-0.0081963
96	0xbc1171ec	-0.008877259
97	0xbe65e260	-0.22449636
98	0xbd1069f6	-0.035257302
99	0xbe4771f6	-0.19477066
100	0x3ca1ab8d	0.019735122
101	0xbdbc1815	-0.09184281
102	0x3e076c6b	0.13224952
103	0xbe0af53d	-0.13570113
104	0xbdc3c939	-0.095598646
105	0x3dbe85f2	0.09302892
106	0x3cd4d82b	0.025981983
107	0xbca0b453	-0.019617235
108	0xbe250506	-0.16115198
109	0x3cf3fbe9	0.029783206
110	0xbd5db9b7	-0.05413219
111	0xbd981260	-0.0742538
112	0x3deb9aeb	0.11504158
113	0x3e57da63	0.21079402
114	0xbd37027a	-0.044680096
115	0xbd256a0a	-0.04038433
116	0x3e0996c3	0.13436417
117	0x3e250d2a	0.16118303
118	0x3de47e99	0.11156959
119	0x3d8c1ce7	0.0684145
120	0x3d002a04	0.03129007
121	0x3e0d75ea	0.13814512
122	0xbe0cd608	-0.13753521
123	0xbbb83cef	-0.005622498
124	0x3e65dfcc	0.22448653
125	0x3c56bc8b	0.013106476
126	0xbe07850d	-0.13234349
127	0xbe182db8	-0.1486119
128	0xbda415dc	-0.08011982
129	0x3cb90a4e	0.022587921
130	0xbe4364d7	-0.19081436
131	0x3e108a3e	0.14115235
132	0x3e2e7b1b	0.17039149
133	0xbdb12817	-0.08650225
134	0xbe04b1c4	-0.12958437
135	0xbe94651d	-0.28983393
136	0x3e83e53d	0.25760832
137	0x3df5597e	0.1197996
138	0x3db93595	0.09043423
139	0xbd4c20e0	-0.04983604
140	0x3c7bf50a	0.015378246
141	0xbd89bfcc	-0.067260355
142	0xbc16c7cb	-0.009202908
143	0x3e74ed56	0.23918661
144	0x3dc8cefa	0.09805103
145	0xbe32e0ad	-0.1746852
146	0x3e3dca84	0.18534285
147	0xbdcf7c06	-0.101310775
148	0x3d826a8d	0.06367979
149	0xbdf2ab8e	-0.11849128
150	0xbe781949	-0.24228396
151	0x3e1509f2	0.14554575
152	0x3c4cade4	0.012492631
153	0xbea09321	-0.3136225
154	0x3d6e2c6b	0.05814783
155	0xbe0fa047	-0.14025985
156	0x3dbe80d3	0.09301915
157	0xbdbeca00	-0.09315872
158	0xbd5666d9	-0.052344177
159	0xbe2b0966	-0.16702804
160	0xbe9ec8db	-0.31012616
161	0xbd0de1aa	-0.03463904
162	0xbe5fdfbc	-0.21862692
163	0xbe46c8a7	-0.1941248
164	0xbcc39d27	-0.023878647
165	0x3e30a5e1	0.17250778
166	0xbdf3d787	-0.11906343
167	0x3e3cb49f	0.18428276
168	0x3e066907	0.13126002
169	0x3c724209	0.014786252
170	0xbdad6b13	-0.084676884
171	0xbe7b8888	-0.24563801
172	0x3e368077	0.17822443
173	0x3d0a77f0	0.033805788
174	0xbd293b55	-0.04131635
175	0x3e1356c1	0.14388563
176	0xbe182628	-0.14858305
177	0x3d4dce9c	0.050245866
178	0x3defe172	0.11712922
179	0xbdde5195	-0.10855404
180	0xbe28846d	-0.16456766
181	0xbd38d56b	-0.045125406
182	0xbe2a2661	-0.16616203
183	0x3e4a6f64	0.19769055
184	0xbe3705c3	-0.17873292
185	0xbc692caf	-0.014231845
186	0xbc9c61a4	-0.019089527
187	0xbdbc865a	-0.09205313
188	0x3c8a9b2e	0.016919699
189	0xbe5226c2	-0.20522597
190	0x3e41a4ab	0.18910472
191	0xbe43ad1b	-0.19109003
192	0xbde7cb65	-0.11318091
193	0x3db55e7d	0.08855913
194	0x3e4db86b	0.20089881
195	0xbe810dda	-0.2520588
196	0x3dac8d40	0.08425379
197	0xbdeb4d33	-0.11489334
198	0xbd16bea2	-0.036802895
199	0x3e9c4e2d	0.30528393
200	0x3d99c3b2	0.07508029
201	0xbd2a1e54	-0.04153283
202	0x3bd1e56e	0.006405524
203	0x3da124bb	0.07868334
204	0x3dcbe5e1	0.09955955
205	0xbcc57159	-0.0241019
206	0x3c7eaff6	0.015544882
207	0x3c992623	0.018694943
208	0x3c11349c	0.008862641
209	0x3e3854c8	0.18001091
210	0xbe9f39be	-0.3109874
211	0xbea78514	-0.32718718
212	0xbe168704	-0.14699942
213	0x3e2b0640	0.16701603
214	0xbd52e190	-0.051484644
215	0xbedc5bc3	-0.4303876
216	0xbe041d27	-0.12901746
217	0xbe2a1a2b	-0.16611545
218	0x3e1ed618	0.15511358
219	0x3d9ac01d	0.07556174
220	0xbd4db57b	-0.0502219
221	0xbcd7d6f2	-0.026347611
222	0x3e95fa75	0.29292646
223	0x3d0aa4ff	0.03384876
224	0xbe69d3ff	-0.22834776
225	0xbe861c6b	-0.26193556
226	0x3cd001a8	0.025391415
227	0xbdcb5e76	-0.09930126
228	0x3ec3db8f	0.38253447
229	0x3df3198f	0.11870109
230	0x3e7cc0f2	0.24682978
231	0xbdf212c2	-0.11819984
232	0xbefe49a0	-0.49665546
233	0x3db40bcb	0.08791312
234	0x3de39804	0.11112979
235	0xbe14ef8a	-0.14544502
236	0xbe8ecc97	-0.27890465
237	0x3dfd9010	0.12380993
238	0xbcd974a7	-0.026544882
239	0xbde94565	-0.11390189
240	0x3e07d084	0.13263136
241	0x3e63d77a	0.22250167
242	0x3ca51fe5	0.02015681
243	0x3e77eed2	0.24212196
244	0xbd30ea13	-0.04319198
245	0xbe5cbb23	-0.21555762
246	0x3d71a9ca	0.058999814
247	0x3d1f0e84	0.038832203
248	0xbdd2670b	-0.1027356
249	0xbec82eb4	-0.39098132
250	0xbe5a8c5a	-0.21342602
251	0x3d797c44	0.060909525
252	0xbe2d3743	-0.16915612
253	0x3d3d6f17	0.04624852
254	0xbdea5ef1	-0.1144389
255	0xbeaf5687	-0.34245703

actor.actor_module.module.4.bias f4 [128]
0	0xbda4334b	-0.08017596
1	0xbddee522	-0.10883547
2	0x3dfef3b7	0.12448829
3	0xbcdd4f0f	-0.027015237
4	0x3d539178	0.0516524
5	0xbd0c4d78	-0.034253567
6	0xbe7d2798	-0.24722135
7	0xbe9b03d7	-0.30276367
8	0xbddbaa99	-0.10725898
9	0xbccce016	-0.025009196
10	0xbe025cb0	-0.1273067
11	0x3d6d6aa4	0.05796303
12	0xbe6fdc90	-0.23423982
13	0x3d848c8a	0.06472118
14	0xbe022b75	-0.1271189
15	0xbe46e4d9	-0.19423236
16	0xbe073f4f	-0.13207744
17	0xbbb0cadd	-0.005395277
18	0xbd7f2c14	-0.062297896
19	0x3e13bc68	0.1442734
20	0x3d2e3604	0.042531982
21	0xbe020a1c	-0.12699169
22	0xbee3f539	-0.44523028
23	0xbd2e12f8	-0.04249856
24	0xbeaf3981	-0.3422356
25	0xbdd224a0	-0.10260892
26	0xbc57eeb3	-0.013179469
27	0x3c0b198c	0.008489978
28	0xbe46abe3	-0.19401507
29	0x3d6a72e1	0.057238463
30	0xbdc88cfa	-0.09792514
31	0x3dc214e3	0.0947664
32	0xbc5149ac	-0.012773912
33	0xbb9dcddd	-0.0048158006
34	0xbe97ff0b	-0.2968677
35	0xbc7403dd	-0.014893499
36	0xbd7c041f	-0.061527368
37	0xbe82b69c	-0.25529945
38	0xbde129f7	-0.10994332
39	0x3d9ad7e4	0.07560709
40	0xbe888458	-0.2666347
41	0x3dad355a	0.08457442
42	0xbd840ba7	-0.06447535
43	0xbe1aa0ae	-0.15100357
44	0x3de51291	0.11185182
45	0xbe124474	-0.14283925
46	0xbd1b2eb6	-0.037886344
47	0xbddcb3e5	-0.107765
48	0xbd4195cc	-0.047261998
49	0x3e014452	0.12623718
50	0xbe3ebc7e	-0.18626592
51	0x3d32038d	0.043460418
52	0xbe2e5817	-0.17025791
53	0xbe9f0ea1	-0.31065848
54	0xbeaec9b5	-0.34138265
55	0x3b98cfaa	0.0046634274
56	0xbe1df324	-0.15424782
57	0x3d856f6f	0.06515395
58	0x3d27113c	0.04078792
59	0xbe85e2dd	-0.26149645
60	0x3d55a0ae	0.05215519
61	0xbd813edc	-0.063108176
62	0xbe73fac1	-0.23826124
63	0x3dbb49b0	0.09144914
64	0xbdfb8422	-0.12281062
65	0xbc41a2c3	-0.011818591
66	0xbeb2ddc5	-0.34934822
67	0xbdc08122	-0.0939963
68	0xbcf9d257	-0.030495806
69	0xbd17bba6	-0.03704419
70	0x3c807466	0.015680503
71	0xbea25263	-0.3170348
72	0xbdf0e0b3	-0.11761608
73	0xbcbde5d3	-0.023180878
74	0xbe10c1c2	-0.14136413
75	0x3df4d83b	0.11955305
76	0xbdc4065d	-0.09571526
77	0xbe523c76	-0.20530877
78	0xbeadf9bd	-0.33979598
79	0xbee22ede	-0.44176382
80	0xbd0a4699	-0.033758733
81	0x3c558e0c	0.013034355
82	0xbd99feb6	-0.075192854
83	0xbe9a160b	-0.30094942
84	0x3bdbb334	0.0067047123
85	0xbc9a4870	-0.018833369
86	0xbd83406a	-0.064087704
87	0xbd9cc680	-0.07655048
88	0x3def5da8	0.116877854
89	0xbe0d8ff8	-0.13824451
90	0xbcb7dae9	-0.022443252
91	0xbe27698b	-0.16348855
92	0xbe8cdbe7	-0.27511522
93	0xbe67a1fd	-0.22620387
94	0xbd75457d	-0.059880722
95	0xbfb508dd	-1.414333
96	0xbec5301f	-0.38513276
97	0x3d42cdca	0.047559537
98	0xbdf492fe	-0.11942099
99	0xbd424563	-0.047429454
100	0xbd8de367	-0.06928139
101	0xbe32676d	-0.17422266
102	0xbd7087ea	-0.058723368
103	0x3dc71b72	0.09722032
104	0xbe379fec	-0.17932099
105	0x3dfb2774	0.122633845
106	0xbefaac19	-0.48959425
107	0xbebd81c7	-0.37013075
108	0xbea8d0f9	-0.32971933
109	0xbc8c1312	-0.017098937
110	0xbdd5254b	-0.10407504
111	0xbdd6b1a6	-0.104831025
112	0xbecdf754	-0.4022776
113	0xbe0377db	-0.1283869
114	0xbe14b28f	-0.1452124
115	0xbdff26f9	-0.12458605
116	0x3dc84007	0.09777837
117	0xbe8bbb94	-0.27291548
118	0xbeaddff6	-0.3395993
119	0xbeb6210a	-0.35572082
120	0xbe65d540	-0.2244463
121	0xbc7ff2cd	-0.015621853
122	0x3e0223ff	0.12709044
123	0xbe0e0a3f	-0.13871096
124	0x3c88a51f	0.016680298
125	0xbe2f09f8	-0.17093647
126	0x3d7000d1	0.05859453
127	0xbea91f7d	-0.33031836

actor.actor_module.module.6.weight f4 [29, 128]
0	0x3ce81029	0.028328018
1	0x3b722674	0.003694919
2	0x3d825df6	0.06365578
3	0x3d3ebf91	0.04656941
4	0xbb542890	-0.003237281
5	0x3c7ba841	0.015359939
6	0xbd50c132	-0.050965495
7	0xbd6fb8a3	-0.058525693
8	0x3c0314a3	0.008000526
9	0xbdd6f4c6	-0.104959056
10	0xbca9e493	-0.020738875
11	0x3da2b794	0.07945171
12	0x3b58ac1e	0.0033061574
13	0x3baa8c81	0.0052047377
14	0x3dbe4247	0.09289985
15	0xba92df8b	-0.0011205537
16	0x3d825f22	0.063658014
17	0x3c3e77dd	0.011625257
18	0x3b52ac89	0.0032146296
19	0xbc80a800	-0.015705109
20	0x3d7c34e1	0.061573867
21	0xbdc30340	-0.09522104
22	0x3d9098e7	0.07060414
23	0xbb1f84e2	-0.002434068
24	0xbe342587	-0.1759244
25	0xbc45b8c9	-0.012067982
26	0xbc05c70a	-0.00816513
27	0x3d2cc3dd	0.042178977
28	0xbda240a3	-0.07922485
29	0xbcaa7e1a	-0.020812083
30	0xbc47b165	-0.01218829
31	0xb9b3af86	-0.00034272316
32	0xbc8747ea	-0.016513783
33	0xbe06b85d	-0.13156267
34	0xbca59287	-0.020211471
35	0x3b8b14d9	0.0042444286
36	0xbcb68641	-0.022280814
37	0xbd1d44eb	-0.038395803
38	0xbd9c93b1	-0.076453574
39	0xbd030b0c	-0.031992957
40	0xbccd5c31	-0.025068374
41	0xbcdb72cf	-0.026788143
42	0x3c217c77	0.009856335
43	0xbd085482	-0.033283718
44	0xbb6babb4	-0.0035960497
45	0xbc197acf	-0.009367659
46	0x3c874a8c	0.016515039
47	0x3c07b824	0.008283649
48	0xbc21260b	-0.00983573
49	0x3cd23813	0.025661504
50	0xbd7847ce	-0.060615353
51	0x3d379587	0.044820335
52	0xbbc333d8	-0.005957108
53	0xbd743e44	-0.059629694
54	0xbe0a8e91	-0.13530947
55	0xbd1c9687	-0.03822949
56	0xbc1a4e58	-0.009418093
57	0x3c340b58	0.010989033
58	0x3cdeb094	0.027183808
59	0x3c2fe4c3	0.010735693
60	0xbc4a18f3	-0.01233505
61	0x3cb0720a	0.021538753
62	0x3cdf650b	0.02726986
63	0x3c250fd7	0.010074577
64	0xbcccfe63	-0.025023645
65	0xbbf7e2e8	-0.007564891
66	0xbd5dd6b6	-0.054159842
67	0xbd4387fd	-0.04773711
68	0x3d968994	0.0735046
69	0xbbf506db	-0.007477624
70	0x3c5cec9a	0.013484145
71	0x3dc597d6	0.09648101
72	0xbce702e0	-0.028199613
73	0xba63550e	-0.0008672037
74	0x3cba6bd9	0.022756504
75	0x3d5b3721	0.053519372
76	0xbccea731	-0.025226207
77	0x3d69bd62	0.057065375
78	0x3d370526	0.044682644
79	0xbdada050	-0.08477843
80	0xbcea9d8a	-0.028639574
81	0x3be076a3	0.00685008
82	0x3b8944a7	0.004189092
83	0xbc1aaa38	-0.009439997
84	0xbc3843d5	-0.011246641
85	0xbdb861fa	-0.090030625
86	0xbb044ea2	-0.002018847
87	0xbd531935	-0.05153771
88	0xbd555aa2	-0.052088387
89	0x3d06f211	0.032945696
90	0xbacd96a1	-0.001568515
91	0xb995755f	-0.00028506943
92	0xbdb71132	-0.089388266
93	0x3d15bb67	0.036555674
94	0x3dd19a04	0.10234454
95	0xbbb0f281	-0.0054000025
96	0x3c219e31	0.009864376
97	0xbca65d26	-0.020308089
98	0x3dc0fd5f	0.09423327
99	0xbbedde9a	-0.007259202
100	0xbca85272	-0.020547125
101	0x3d890f40	0.06692362
102	0xbcdbdf72	-0.026839945
103	0xbc5e79ee	-0.013578875
104	0xbccfa2e1	-0.025346221
105	0xbb76a090	-0.0037632324
106	0xbda9e7e1	-0.082961805
107	0x3d6422bc	0.055697188
108	0xbce4c690	-0.027926713
109	0xbb249d20	-0.0025118068
110	0x3da22250	0.07916701
111	0xbdbf4675	-0.093396105
112	0xbc373d08	-0.011183985
113	0x3d5451f4	0.05183597
114	0xbd9baa18	-0.07600802
115	0xbd5fa3ca	-0.05459956
116	0x3cd61b81	0.026136162
117	0xbafe8e75	-0.0019421118
118	0x3b9feecf	0.004880763
119	0xbd482121	-0.04885972
120	0xbd7552dc	-0.059893474
121	0x3d1ef218	0.038805097
122	0x3d320a91	0.04346711
123	0x3d7985a7	0.060918476
124	0xbbf467a0	-0.007458642
125	0xbbe4218b	-0.0069620064
126	0xbc6dc6b8	-0.01451271
127	0x3e13e8dd	0.14444299
128	0xbce91f4f	-0.028457312
129	0xbad2e98e	-0.0016091333
130	0xbba98996	-0.005173872
131	0xbd9e6653	-0.077343605
132	0x3ca5d8aa	0.020244915
133	0xbd0eb781	-0.03484297
134	0x3adcaf18	0.001683685
135	0xbd051261	-0.03248823
136	0x3c6cf754	0.0144632645
137	0xbc0c23f7	-0.008553497
138	0xbc685c4d	-0.0141821625
139	0x3c2cecec	0.010554533
140	0x3c3f078d	0.011659515
141	0xba6ab4f6	-0.0008953357
142	0xbac80306	-0.001525969
143	0x3b29c84f	0.0025906747
144	0xbb288c66	-0.002571845
145	0xbc0fe7ae	-0.008783264
146	0x3c904cef	0.01761481
147	0xbb82be27	-0.003989953
148	0xbcc71350	-0.024301201
149	0x3ce52f53	0.027976668
150	0x3c9d5d42	0.019209508
151	0xbd0c4375	-0.03424402
152	0x3c1f98db	0.009741033
153	0x3c59379e	0.013257889
154	0xba4e05bb	-0.000785913
155	0x3cdf59df	0.027264534
156	0xbc501ee1	-0.012702675
157	0x3bf8b1c7	0.007589552
158	0x3d85c663	0.0653198
159	0x3c06c26f	0.0082250675
160	0xbcabf616	-0.020991366
161	0x3be31810	0.0069303587
162	0xb8975af8	-7.217185e-05
163	0x3c05a0da	0.008156026
164	0xbc7a474b	-0.015275787
165	0xbdbdf9cc	-0.092761606
166	0xbd0daf95	-0.034591276
167	0xbcc1b0d1	-0.023643883
168	0xbd120ff6	-0.035659753
169	0x3d0eed06	0.034894012
170	0x3bf21912	0.0073882425
171	0xbd14ba1d	-0.036310304
172	0x3cf64f08	0.030066982
173	0xbd2ec8eb	-0.04267208
174	0x3bcb46f3	0.006203526
175	0x3c7bd84a	0.015371392
176	0xbaa8dc2c	-0.0012882999
177	0xbba240c8	-0.00495157
178	0x3d0eb2ed	0.034838606
179	0xba3a66de	-0.00071106653
180	0xba4926db	-0.00076733314
181	0xbd41175a	-0.04714141
182	0x3d88d824	0.066818506
183	0x3b1993ed	0.0023434118
184	0xbd08c285	-0.033388633
185	0x3c99d4a9	0.018778162
186	0x3d33d691	0.0439058
187	0x3cd20afc	0.025640003
188	0xbc270171	-0.010193215
189	0xbcf277e5	-0.029598186
190	0xbdfb7214	-0.12277618
191	0xbc228897	-0.009920261
192	0xbcb84228	-0.022492483
193	0x3b91a78e	0.004445023
194	0xbc082418	-0.008309387
195	0xbbda080b	-0.006653791
196	0xbd616e43	-0.055036794
197	0xbc7999a8	-0.015234388
198	0xbc88cd01	-0.016699316
199	0x3d3142ce	0.0432766
200	0xbd4fc9cc	-0.050729558
201	0x3c853432	0.01626024
202	0xbd7fec96	-0.062481485
203	0xba1ec80c	-0.0006057031
204	0xbca46059	-0.020065473
205	0x3dd2ccf4	0.10292998
206	0x3dc28a93	0.09499087
207	0xbdb305c8	-0.08741337
208	0xbaf4c359	-0.0018673941
209	0x3d449358	0.04799208
210	0x3c996a32	0.018727396
211	0xbd07a9da	-0.033120967
212	0xbbec8347	-0.007217798
213	0xbb898542	-0.004196794
214	0x3c05bf53	0.008163291
215	0xbca84144	-0.020538934
216	0x3c4fe857	0.0126896715
217	0x3cdd9d0b	0.027052423
218	0xbcd2e2f4	-0.025742985
219	0xbca3b2a6	-0.019982647
220	0x3c760501	0.015015841
221	0xbcfd6267	-0.030930711
222	0xbc2b069c	-0.0104385875
223	0xbcfb9adc	-0.030713491
224	0x3bada694	0.0052993987
225	0x3c2a74f0	0.010403857
226	0x3cce626c	0.025193416
227	0xbb142ead	-0.0022610829
228	0x3c799030	0.015232131
229	0x3c6b2baf	0.014353677
230	0xbd3d6ecb	-0.04624824
231	0xbc6f6f38	-0.014613919
232	0xbcf9befc	-0.030486576
233	0x3ba319ae	0.0049774265
234	0x3c674188	0.014114745
235	0xbbdeab60	-0.006795332
236	0xbd0027ff	-0.031288143
237	0x3a4c1500	0.00077851117
238	0xbdc5c4f2	-0.09656705
239	0xbcc5f172	-0.024162982
240	0xbd6fc3e0	-0.05853641
241	0x3ce9b07b	0.028526535
242	0xbd273e0b	-0.040830653
243	0xbddc97a4	-0.10771111
244	0xbbfbb0af	-0.0076809744
245	0x3b33ab2e	0.0027415263
246	0xbd54f2c6	-0.05198934
247	0xbce42174	-0.027847983
248	0x3bb5e5c3	0.0055510714
249	0xbbd8f79c	-0.006621314
250	0xbc2597d3	-0.0101069985
251	0xbd02feda	-0.031981327
252	0x3d201223	0.039079797
253	0x3c5fddd1	0.013663725
254	0xbc47d9dc	-0.012197938
255	0x3d85dd60	0.065363646

actor.actor_module.module.6.bias f4 [29]
0	0x3c311094	0.010807175
1	0x3dfd101d	0.12356589
2	0xbe12267c	-0.14272493
3	0xbf14922c	-0.5803554
4	0x3e9c3009	0.30505398
5	0xbcb4676f	-0.022021977
6	0x3ccda8aa	0.02510484
7	0xbe01a6f1	-0.1266134
8	0x3e139496	0.1441215
9	0xbf14664a	-0.5796858
10	0x3ea03fb5	0.31298605
11	0x3d07c6cb	0.033148568
12	0x3be178bb	0.0068808473
13	0x3b36be4b	0.002788442
14	0xbf644189	-0.891625
15	0xbda2faf5	-0.079580225
16	0xbd1acd90	-0.037793696
17	0xbd3809c0	-0.044931173
18	0xbd5fabd4	-0.054607227
19	0xbd785883	-0.060631286
20	0xbd2c8fad	-0.042129207
21	0xbda0d131	-0.078524
22	0xbd983686	-0.074322745
23	0x3d088aa7	0.033335354
24	0x3d6038f3	0.05474181
25	0xbd6f3482	-0.058399685
26	0x3d850c90	0.06496537
27	0xbd388a83	-0.04505397
28	0x3d9b4197	0.0758087
