my work space/logs/hv-g1-manager/20260114_044125-g1_robust_8192envs_20260114_124120-locomotion/model_03300.onnx (onnx, 956497 bytes, 8 tensors)

actor.actor_module.module.0.weight f4 [512, 100]
-0.005619982 0.048787005 0.0021198292 0.007962372 -0.006525214 -0.06548875 -0.010003411 -0.008453581
-0.029303959 -0.0059852707 -0.017029574 -0.0038110518 0.02642431 -0.022815501 -0.00018922005 -0.006136007
0.004614486 -0.0016621746 -0.0047909273 -0.0069529684 0.003029388 0.0008090526 -0.0006141975 -0.008768548
0.008664729 -0.01184904 0.015674153 -0.0068492554 -0.0056186924 -0.23665147 0.44529507 -0.06468295
0.029982602 -0.057105523 -0.050129175 -0.010035365 -0.035320386 0.3842088 -2.3317118 0.31212896
0.12715332 -0.512202 -1.5026408 0.606337 1.8083426 -0.13459294 -0.31771162 0.35029155
0.34130177 -0.24181107 -0.39284047 0.33960894 0.017151963 -0.11954071 -0.029793665 0.013136595
-0.011261053 -0.02705883 -0.029946951 -0.04378273 -0.056953482 -0.037056897 -0.008662403 -0.017697712
0.014863178 0.00245544 0.33963585 -0.14545143 -0.024161335 -0.030616902 -0.05538829 0.33568075
0.6093079 0.06530305 -0.008308465 0.23107103 0.041798677 -0.08812644 -0.25388017 -0.48344523
0.24110314 0.05338375 -0.0017222833 -0.037554078 0.017089209 -0.04020032 0.0232479 -0.056034155
-0.11447388 -0.031087393 -0.0063374317 -0.022987518 -0.02620348 0.043512937 0.010048845 0.8683341
0.76642877 0.112772375 0.16768633 -0.078774326 0.03660137 0.06336362 0.110638976 -0.060757782
-0.095341794 0.13195942 0.004693725 0.24178378 -0.08889815 -0.023044605 -0.027483188 0.047828954
0.11172062 0.008231036 0.024333978 -0.04774797 0.016758924 -0.0014895288 -0.08115496 0.0005580993
-0.01914887 -0.00486351 0.051330674 -0.012115435 0.049507737 0.0483829 0.022581255 0.04931
0.09664512 0.5548486 -0.22123016 0.110103935 0.048475035 -0.06963579 -0.18937443 0.041103877
-0.066866755 -0.45970038 -0.19923373 0.2897289 -0.082021035 0.16076824 0.56902254 -0.62439096
-0.17848568 0.07852328 -0.41083634 0.1838814 -0.3893428 -0.47205853 0.67583853 -0.0836562
-0.4183279 -0.05845465 -0.043866493 -0.10964679 0.14071931 0.15212575 -0.034541547 0.11800011
-0.24992134 -0.3621051 0.11129277 -0.22025536 0.16913588 -0.095781825 -0.1059464 -1.0102664
-0.0465957 0.31012815 0.011731944 -0.09022581 -0.36040255 -0.258463 0.08550964 0.48174083
0.2517514 -0.18313085 -0.41943198 0.19282563 0.056807157 -0.14140299 -0.27529198 -0.17227308
0.20880611 -0.03948964 0.007815949 -0.113486014 -0.43925866 0.09359253 -0.19528385 0.05265166
-0.016170973 -0.08844859 -0.1309176 -1.6536672 0.7431829 -0.07844688 -0.4814456 0.15926279
0.04964066 0.123697676 -0.008285186 0.03694432 0.0146466205 0.018277768 -0.07357719 -0.007124085
-0.041630607 -0.0070883385 0.009246443 0.09110303 -0.060480714 0.0012197944 0.0053514545 -0.002755853
0.037156444 0.048723925 -0.04673708 -0.0334389 0.024341282 0.076116934 0.09663905 -0.0002572189
-0.050581068 0.07001997 -0.056758303 0.018314252 -0.018459423 0.149121 -0.05771994 0.25483996
0.096945815 0.6554937 0.6950731 -0.024736945 -0.12276901 0.2741683 1.4718218 -0.10680558
-0.053003404 0.6869246 -0.18123977 -0.70956033 0.24683751 0.51576203 -0.20908159 -0.03852878
-0.0500318 -0.40413308 0.46564108 0.15466823 -0.030562073 0.12365436 0.09050879 0.1298041
00000000: d327 b8bb e2d4 473d d5ec 0a3b 9c74 023c
00000010: 76d1 d5bb f71e 86bd 59e5 23bc e380 0abc
00000020: db0e f0bc 1720 c4bb 9b81 8bbc d7c2 79bb
00000030: cb77 d83c 93e7 babc 5f69 46b9 8f10 c9bb
00000040: 1d35 973b 53dd d9ba 36fd 9cbb bad5 e3bb
00000050: b288 463b 9a16 543a 1902 21ba f5a9 0fbc
00000060: 82f6 0d3c 7a22 42bc 1567 803c b86f e0bb
00000070: 021d b8bb c354 72be b7fd e33e 7f78 84bd
00000080: 139e f53c 7be7 69bd 4054 4dbd 5f6b 24bc
00000090: 1cac 10bd 04b7 c43e c43a 15c0 5ecf 9f3e
000000a0: 7b34 023e ac1f 03bf 8956 c0bf e738 1b3f
000000b0: c577 e73f bbd2 09be 19ab a2be 6a59 b33e
000000c0: 1bbf ae3e 529d 77be 6322 c9be 39e1 ad3e
000000d0: 4682 8c3c c2d1 f4bd d811 f4bc df3a 573c
000000e0: 4880 38bc 7baa ddbc 4f53 f5bc 8555 33bd
000000f0: 0e48 69bd f9c8 17bd c0ec 0dbc cbfa 90bc
00000100: b084 733c 72eb 203b c0e4 ad3e 38f1 14be
00000110: feed c5bc 4cd0 fabc d5de 62bd 59de ab3e
00000120: 9afb 1b3f 9bbd 853d 3a20 08bc e29d 6c3e
00000130: 1735 2b3d a37b b4bd 95fc 81be 2286 f7be
00000140: bee3 763e eba8 5a3d 3dbe e1ba 4ed2 19bd
00000150: abfe 8b3c 17a9 24bd 6172 be3c 1284 65bd
00000160: 4871 eabd fdaa febc 3baa cfbb 5250 bcbc
00000170: aea8 d6bc 9f3a 323d e9a3 243c 254b 5e3f
00000180: ad34 443f 34f5 e63d f7b5 2b3e 6f54 a1bd
00000190: 51eb 153d c9c4 813d b096 e23d 27dd 78bd
000001a0: 8f42 c3bd 5f20 073e d2cd 993b 2b96 773e
000001b0: 3c10 b6bd 0ac8 bcbc 6c24 e1bc 4be8 433d
000001c0: c8cd e43d 78db 063c 0d58 c73c 6093 43bd
000001d0: 034a 893c 4b3c c3ba 9234 a6bd 694d 123a
000001e0: 17de 9cbc 145e 9fbb 1d40 523d d17f 46bc
000001f0: a0c8 4a3d 262d 463d 53fc b83c 48f9 493d
00000200: e0ed c53d 8f0a 0e3f 298a 62be 2c7e e13d
00000210: c28d 463d 369d 8ebd 5feb 41be 8a5c 283d
00000220: 70f1 88bd d95d ebbe ed03 4cbe 5957 943e
00000230: a5fa a7bd 6ea0 243e 76ab 113f 16d8 1fbf
00000240: f3c4 36be d0d0 a03d 2459 d2be 684b 3c3e
00000250: f157 c7be a8b1 f1be c103 2d3f f153 abbd
00000260: 132f d6be 256e 6fbd 5aad 33bd 7f8e e0bd
00000270: b918 103e dac6 1b3e 707b 0dbd 0baa f13d
00000280: 61eb 7fbe d765 b9be 77ed e33d 9f8a 61be
00000290: f531 2d3e 4329 c4bd 6dfa d8bd 6950 81bf
000002a0: 22db 3ebd 1ec9 9e3e 5737 403c 4fc8 b8bd
000002b0: af86 b8be 4355 84be ae1f af3d bca6 f63e
000002c0: 8fe5 803e a786 3bbe cabf d6be 1574 453e
000002d0: 9fae 683d f2cb 10be 12f3 8cbe 5b68 30be
000002e0: 45d1 553e e4bf 21bd 770e 003c 5b6b e8bd
000002f0: 83e6 e0be 71ad bf3d 7df8 47be 44a9 573d
00000300: fd78 84bc 8924 b5bd 430f 06be 5eab d3bf
00000310: 3c41 3e3f c2a8 a0bd 0a80 f6be c915 233e
00000320: 0154 4b3d 3555 fd3d 97be 07bc ed52 173d
00000330: 61f8 6f3c 42bb 953c a3af 96bd 2871 e9bb
00000340: db84 2abd 4b45 e8bb 657e 173c 3a94 ba3d
00000350: a0ba 77bd 82e1 9f3a 415b af3b 8b9b 34bb
00000360: 5b31 183d bd92 473d 616f 3fbd 3af7 08bd
00000370: 5e67 c73c 32e3 9b3d b2ea c53d 56db 86b9
00000380: 182e 4fbd a166 8f3d 657b 68bd c507 963c
00000390: 3738 97bc 2db3 183e be6b 6cbd 627a 823e
000003a0: 878b c63d 6fce 273f 50f0 313f 22a5 cabc
000003b0: 526e fbbd ca5f 8c3e a864 bc3f e2bc dabd
000003c0: 191a 59bd 4ada 2f3f eb96 39be bfa5 35bf
000003d0: f9c2 7c3e fb08 043f 7c19 56be 5bd0 1dbd
000003e0: 25ee 4cbd 88ea cebe 8268 ee3e 5961 1e3e
000003f0: 505d fabc 7f3e fd3d ac5c b93d 5eeb 043e

actor.actor_module.module.0.bias f4 [512]
-0.04536694 0.01851056 -0.23377508 -0.05632142 0.059042253 -0.21612096 -0.13653186 0.21128991
0.1185942 -0.18517578 -0.035573825 -0.14122161 -0.05385345 -0.004786765 0.16600646 0.08892623
-0.090906695 -0.073968306 0.12161164 0.17352802 -0.17871219 -0.02291861 -0.19105427 0.027008712
-0.00938968 0.07668064 -0.04164621 0.13715456 -0.15044986 -0.07642509 0.104749426 0.06238833
-0.09869463 -0.06559692 0.24251361 -0.043050326 -0.0898045 0.13262129 0.02936798 0.13003585
0.011110376 -0.2823467 -0.051772535 0.23275638 0.16691068 -0.23551758 -0.07563615 0.17430943
-0.07307571 -0.25169542 -0.29241 0.05270853 -0.083951 -0.19410294 -0.106001064 -0.10925061
-0.027476532 0.045051493 0.041116886 -0.05815653 0.32834262 0.14036235 -0.19231136 0.18317801
-0.095082365 0.106947094 -0.13902517 -0.25105256 0.19623202 0.06661175 0.31785578 0.015110131
0.0031786298 0.082060724 0.18399444 -0.08398295 0.20054339 0.075247884 0.03283727 -0.13609332
-0.27730772 0.09915507 -0.10494816 0.040631663 -0.048388638 -0.027274068 -0.088731356 -0.058211718
-0.08020882 -0.14878088 0.05968647 0.092156775 -0.07709204 -0.20512004 0.055775635 -0.15250504
-0.1307141 0.060657497 0.10395315 0.15394284 -0.027013445 0.064460166 -0.18008967 -0.11004494
-0.15509951 -0.0022042517 -0.027579872 -0.03027284 0.106046766 0.07803549 -0.16519803 -0.14301093
0.031975012 -0.031491455 -0.053689253 0.12930311 -0.053906165 0.09969246 -0.19948004 -0.027328053
-0.06485149 -0.021545291 -0.2831905 -0.29455072 -0.07098441 0.023020623 -0.08742736 -0.0037722166
-0.07924705 -0.03320129 -0.115038544 -0.06698935 0.19359714 0.019573824 0.04167358 0.006990998
0.23053682 0.2376298 0.04242918 -0.08688789 0.15020722 -0.074070714 -0.1523645 0.048932314
-0.16541176 0.13152885 0.03204493 0.18425252 0.07543046 -0.30501217 -0.18003593 -0.23270175
-0.0010453601 -0.053856064 0.23548992 -0.04215636 -0.14920126 0.090507716 -0.09069822 -0.20881958
-0.10125189 0.1600583 0.009020653 -0.035239305 0.14269687 0.17083618 -0.06493938 -0.09273529
-0.12481635 0.058083385 -0.15149911 -0.32285914 -0.057057198 0.16952968 0.102129154 0.014988843
-0.33685902 0.17722066 0.08943427 0.033804428 -0.11041825 0.13468762 -0.047114577 0.14854135
-0.2651045 0.050699484 0.2705568 -0.055021062 0.03359763 0.16363204 0.23362184 -0.02317298
0.06391239 -0.0348255 0.15226664 0.1423496 0.06282693 -0.241813 0.17863949 0.048074957
-0.11933774 0.11000704 -0.00481452 0.1243942 0.056340832 -0.037268616 -0.13945724 -0.10684551
0.046171937 0.11277779 -0.25506032 0.13016899 0.13499275 -0.1211729 0.01765571 -0.26424992
0.093730085 -0.1184086 -0.070631236 -0.010031176 -0.13021149 -0.017259892 0.059548154 -0.013928631
0.011021492 -0.11345679 -0.12601437 0.17994626 -0.2544932 -0.07099656 -0.040605213 -0.076903336
-0.16519938 0.08476582 0.22226019 -0.060821168 0.12515534 0.24979785 -0.10760279 0.13680285
-0.12675454 0.066159524 0.03888738 0.36751124 0.116738014 -0.2163658 -0.007193819 0.09618327
0.22870937 0.11427404 0.1071285 -0.10915453 0.101559065 -0.11034168 -0.00033465502 -0.07479973
00000000: afd2 39bd 75a3 973c bc62 6fbe 4ab1 66bd
00000010: 4ad6 713d d04e 5dbe 02cf 0bbe 625c 583e
00000020: 84e1 f23d b89e 3dbe dcb5 11bd 669c 10be
00000030: 6f95 5cbd 4cda 9cbb 99fd 293e f51e b63d
00000040: 4a2d babd b27c 97bd 860f f93d 54b1 313e
00000050: 5400 37be cfbf bbbc bba3 43be 6041 dd3c
00000060: 2cd7 19bc bd0a 9d3d 3795 2abd 3f72 0c3e
00000070: 870f 1abe c284 9cbd de86 d63d e88a 7f3d
00000080: 6920 cabd ae57 86bd 7d55 783e 8a55 30bd
00000090: 6ceb b7bd e0cd 073e 1e95 f03c 1e28 053e
000000a0: 4b08 363c bf8f 90be 700f 54bd b057 6e3e
000000b0: a2ea 2a3e 852b 71be 20e7 9abd 2c7e 323e
000000c0: b8a8 95bd 39de 80be c3b6 95be e6e4 573d
000000d0: 80ee abbd ecc2 46be 1617 d9bd c9be dfbd
000000e0: 7716 e1bc ea87 383d 2e6a 283d 8b35 6ebd
000000f0: 861c a83e 26bb 0f3e 45ed 44be 0493 3b3e
00000100: 8bba c2bd 1407 db3d 9d5c 0ebe f689 80be
00000110: 0cf1 483e be6b 883d febd a23e 7c90 773c
00000120: 8f50 503b 740f a83d 0a69 3c3e 41ff abbd
00000130: 3f5b 4d3e 901b 9a3d 6080 063d 0c5c 0bbe
00000140: 47fb 8dbe d011 cb3d 10ef d6bd 636d 263d
00000150: 2a33 46bd de6d dfbc c9b8 b5bd 696f 6ebd
00000160: 8644 a4bd 045a 18be cd79 743d b1bc bc3d
00000170: 6ee2 9dbd fd0a 52be fe74 643d 482a 1cbe
00000180: ebd9 05be ff73 783d 64e5 d43d 31a3 1d3e
00000190: 4d4b ddbc b103 843d 6d69 38be 3e5f e1bd
000001a0: 68d2 1ebe 3575 10bb 2fef e1bc bffe f7bc
000001b0: 0c2f d93d 12d1 9f3d ac29 29be 7571 12be
000001c0: 3bf8 023d 2ffd 00bd 43e9 5bbd 0968 043e
000001d0: b6cc 5cbd 8f2b cc3d 7f44 4cbe 15df dfbc
000001e0: dcd0 84bd c07f b0bc 58fe 90be 5acf 96be
000001f0: 4660 91bd bf95 bc3c 1e0d b3bd 4b37 77bb
00000200: 474c a2bd 13fe 07bd 5499 ebbd b631 89bd
00000210: 543e 463e 4959 a03c eab1 2a3d be14 e53b
00000220: d811 6c3e 3a55 733e 38ca 2d3d 47f2 b1bd
00000230: eccf 193e 63b2 97bd 7105 1cbe 406d 483d
00000240: b361 29be 80af 063e 8b41 033d b1ac 3c3e
00000250: 497b 9a3d 8e2a 9cbe 575b 38be 5e49 6ebe
00000260: 7704 89ba 2d98 5cbd 4524 713e 26ac 2cbd
00000270: 37c8 18be 1c5c b93d fdbf b9bd cdd4 55be
00000280: 275d cfbd 53e6 233e 5ccb 133c 1757 10bd
00000290: 211f 123e aeef 2e3e f0fe 84bd 00ec bdbd
000002a0: b79f ffbd d8e8 6d3d 9522 1bbe cb4d a5be
000002b0: cfb4 69bd 3099 2d3e 1729 d13d c493 753c
000002c0: c978 acbe 5579 353e 5129 b73d 8376 0a3d
000002d0: f722 e2bd 8deb 093e 37fb 40bd 391b 183e
000002e0: c7bb 87be 43aa 4f3d 6c86 8a3e c45d 61bd
000002f0: ab9d 093d 288f 273e 903a 6f3e 43d5 bdbc
00000300: 80e4 823d 2fa5 0ebd c9eb 1b3e 18c4 113e
00000310: 68ab 803d d49d 77be 45ed 363e 3fea 443d
00000320: 5867 f4bd 5f4b e13d 1fc3 9dbb 63c2 fe3d
00000330: a5c5 663d faa6 18bd e1cd 0ebe d2d1 dabd
00000340: c91e 3d3d 0bf8 e63d 4497 82be 054b 053e
00000350: 8a3b 0a3e 7f29 f8bd b5a2 903c c44b 87be
00000360: 8ff5 bf3d 3580 f2bd 1ca7 90bd cd59 24bc
00000370: 2956 05be 9e64 8dbc c4e8 733d ea34 64bc
00000380: 7d93 343c 095c e8bd e909 01be d543 383e
00000390: ef4c 82be a566 91bd a751 26bd 7f7f 9dbd
000003a0: 072a 29be b499 ad3d 2d98 633e 9e1f 79bd
000003b0: b928 003e 02cb 7f3e da5e dcbd 0c16 0c3e
000003c0: f1cb 01be a57e 873d 6048 1f3d 6f2a bc3e
000003d0: 5714 ef3d ff8e 5dbe 21ba ebbb bcfb c43d
000003e0: ca32 6a3e 8208 ea3d 3066 db3d 698c dfbd
000003f0: 33fe cf3d d2fa e1bd a374 afb9 9a30 99bd

actor.actor_module.module.2.weight f4 [256, 512]
0.08488761 -0.05404473 0.05765947 -0.0016865213 0.10782243 0.06787466 0.08686667 -0.009351221
-0.19470859 0.1057616 -0.17845747 0.042194016 -0.057754137 -0.08175969 -0.042632505 -0.010554412
-0.12248069 0.1316937 -0.07873949 0.39291397 -0.018119195 -0.07098147 -0.036368247 -0.04100779
-0.015830811 -0.04202872 0.024828058 0.06572941 0.04641437 -0.03197371 0.015675835 -0.07676308
-0.07419553 0.02547709 0.1841158 -0.011463738 -0.04304119 -0.10644861 -0.014973304 -0.12227823
0.06596585 -0.034165483 -0.18469223 -0.05891303 -0.00073874864 0.08696654 -0.06705044 -0.08000258
-0.099822186 -0.00066136604 -0.056265894 -0.08974162 -0.05975451 0.14160751 -0.018926002 0.12531552
-0.028086748 0.01898769 -0.058892705 0.03428109 0.07316612 0.033008724 0.0286295 -0.06926396
-0.18312359 0.0914012 -0.0038824691 0.11318681 0.08202154 -0.3066839 -0.10265833 -0.020717574
0.046632268 0.03777991 -0.011148784 0.038016368 0.13690884 -0.033531535 0.016407818 -0.106544554
-0.04103829 -0.044333756 -0.06616836 0.04730241 -0.22703882 0.011827018 0.061850663 -0.1293299
-0.120898664 0.088651516 0.022859493 0.028388431 0.04715719 0.14803895 0.043732032 0.06707388
-0.07517713 0.14598577 0.0038668467 0.05697467 -0.02648438 -0.032556724 -0.24424903 0.0022113265
0.14128989 0.08711137 -0.11719213 0.20742396 -0.1755526 0.0797638 0.02294195 0.034756605
0.02819945 0.035259757 -0.06408347 0.13709909 -0.04663583 0.12449152 -0.025574593 -0.0005222209
0.023110842 0.06362261 -0.032646567 0.0010228653 0.001152702 -0.0149471965 -0.04779376 -0.06627285
0.17798144 0.09430087 0.033647258 -0.02641172 0.008520575 0.046410337 -0.023976125 -0.14335626
-0.00225076 0.026976574 -0.0902872 0.031594012 0.08489824 -0.16190183 0.11100076 -0.099034674
-0.0853578 0.04751973 0.08190986 0.11896777 0.01671818 0.06623039 -0.027157744 0.023460444
0.025234358 0.12866585 -0.11257767 -0.042168386 0.04992447 0.042350356 -0.019373043 -0.16761996
-0.038305443 -0.034470893 -0.023664884 -0.16654149 0.012014722 -0.019027924 0.021555908 0.04645056
-0.15349343 -0.06326944 -0.01669226 -0.3236024 -0.08416312 0.007745774 -0.11324989 0.033024237
-0.012397117 0.111823164 0.20543467 -0.026713377 -0.20122205 0.3358512 0.03596277 0.20439035
0.092091344 -0.0686337 -0.11230565 0.10548653 0.22397363 -0.0373173 -0.13458875 -0.0117345145
-0.07678625 0.022836728 -0.028179418 -0.0057161823 0.13885424 0.24163988 0.15078901 -0.11196939
-0.12803704 -0.077987224 0.1217758 0.09471302 -0.031852625 -0.14272887 -0.08356339 0.052912936
0.042632032 -0.07066508 0.08522786 -0.06262569 0.251179 -0.35160476 0.024593873 -0.26853338
-0.11889647 -0.07131648 0.041952636 0.17297329 0.050379556 0.041260887 -0.10282101 -0.012927025
-0.120704375 0.05943467 0.01952474 -0.04040427 -0.17180325 -0.020836227 0.18764402 0.010817948
0.028481832 -0.036852673 -0.019326773 0.007506011 0.0154201 -0.09649009 0.08432289 -0.043071143
0.10064769 0.095409915 0.015602782 0.0305109 0.035804436 0.027559748 -0.035222862 -0.021574924
-0.076529324 -0.011893418 -0.031465024 -0.091382556 0.016114585 -0.015787737 -0.08461258 -0.010541852
00000000: 8ed9 ad3d 025e 5dbd 562c 6c3d 440e ddba
00000010: 02d2 dc3d df01 8b3d 27e7 b13d dd35 19bc
00000020: b061 47be 8a99 d83d 8ebd 36be a2d3 2c3d
00000030: 9a8f 6cbd a071 a7bd 6c9f 2ebd 6aec 2cbc
00000040: 28d7 fabd b7da 063e 2b42 a1bd 052c c93e
00000050: b56e 94bc bc5e 91bd dff6 14bd c9f7 27bd
00000060: 9eaf 81bc 4f26 2cbd 3664 cb3c 249d 863d
00000070: ff1c 3e3d ddf6 02bd 9c6a 803c f635 9dbd
00000080: d3f3 97bd 55b5 d03c da88 3c3e 67d2 3bbc
00000090: f54b 30bd bb01 dabd 9752 75bc 026d fabd
000000a0: 1b19 873d 1bf1 0bbd f61f 3dbe ca4e 71bd
000000b0: 95a8 41ba 831b b23d be51 89bd 65d8 a3bd
000000c0: 936f ccbd 865f 2dba 1177 66bd 74ca b7bd
000000d0: 25c1 74bd 8f01 113e b40a 9bbc b652 003e
000000e0: 2e16 e6bc 128c 9b3c 7a39 71bd 546a 0c3d
000000f0: 1ed8 953d 2834 073d 6a88 ea3c 43da 8dbd
00000100: c084 3bbe 8d30 bb3d 0671 7ebb 7cce e73d
00000110: e9fa a73d ac05 9dbe 883e d2bd e7b7 a9bc
00000120: 7a01 3f3d 1bbf 1a3d 64a9 36bc 0db7 1b3d
00000130: d531 0c3e 5d58 09bd b069 863c 0834 dabd
00000140: c417 28bd 5097 35bd 4783 87bd 2cc0 413d
00000150: dd7c 68be 1cc6 413c 1f57 7d3d 0f6f 04be
00000160: b899 f7bd ed8e b53d d543 bb3c db8e e83c
00000170: e627 413d 8697 173e 5c20 333d 085e 893d
00000180: 78f6 99bd 4b7d 153e ec6a 7d3b 465e 693d
00000190: c5f5 d8bc 335a 05bd 6b1c 7abe e7eb 103b
000001a0: 4cae 103e 7267 b23d 6d02 f0bd f266 543e
000001b0: 10c4 33be 345b a33d c2f0 bb3c f15c 0e3d
000001c0: 8802 e73c 896c 103d 323e 83bd b463 0c3e
000001d0: 3605 3fbd 69f5 fe3d cf81 d1bc a7e5 08ba
000001e0: f352 bd3c 924c 823d 68b8 05bd aa11 863a
000001f0: 4316 973a 16e5 74bc 64c3 43bd 0fba 87bd
00000200: c440 363e d120 c13d b5d1 093d 645d d8bc
00000210: e299 0b3c c418 3e3d 9469 c4bc fccb 12be
00000220: 7d81 13bb fafd dc3c 7fe8 b8bd b968 013d
00000230: 21df ad3d 98c9 25be 5e54 e33d b1d2 cabd
00000240: 12d0 aebd 0ca4 423d 5bc0 a73d 60a5 f33d
00000250: 91f4 883c cca3 873d eb79 debc 1e30 c03c
00000260: 49b8 ce3c fbc0 033e 1f8f e6bd c2b8 2cbd
00000270: 9a7d 4c3d 9177 2d3d 37b4 9ebc 91a4 2bbe
00000280: 2be6 1cbd 5a31 0dbd dcdc c1bc da89 2abe
00000290: 66d9 443c 73e0 9bbc 0496 b03c f142 3e3d
000002a0: 622d 1dbe 6893 81bd 35be 88bc 37af a5be
000002b0: b75d acbd 43d0 fd3b 8fef e7bd 6c44 073d
000002c0: 471d 4bbc 8b03 e53d 775d 523e 03d6 dabc
000002d0: 270d 4ebe b0f4 ab3e b34d 133d b44b 513e
000002e0: 639a bc3d d38f 8cbd 8100 e6bd 5209 d83d
000002f0: 5859 653e 06da 18bd a2d1 09be 1f42 40bc
00000300: 1c42 9dbd 1714 bb3c 86d8 e6bc d04e bbbb
00000310: ce2f 0e3e 7270 773e 6f68 1a3e 3550 e5bd
00000320: 241c 03be c4b7 9fbd 9765 f93d e6f8 c13d
00000330: e677 02bd 8427 12be 4823 abbd 3cbb 583d
00000340: ed9e 2e3d dab8 90bd f28b ae3d e641 80bd
00000350: 899a 803e 8a05 b4be 1779 c93c 357d 89be
00000360: fe7f f3bd 600e 92bd 87d6 2b3d e91f 313e
00000370: cb5a 4e3d 2d01 293d d293 d2bd dfcb 53bc
00000380: db33 f7bd c571 733d 59f2 9f3c f37e 25bd
00000390: 31ed 2fbe bcb0 aabc c125 403e c33d 313c
000003a0: bb52 e93c d4f2 16bd 2e53 9ebc fcf4 f53b
000003b0: 96a4 7c3c 999c c5bd 7bb1 ac3d 5e6b 30bd
000003c0: 6020 ce3d 4666 c33d d0a2 7f3c fff1 f93c
000003d0: aca7 123d fbc4 e13c d945 10bd e5bd b0bc
000003e0: 68bb 9cbd 9cdc 42bc 78e1 00bd c726 bbbd
000003f0: bc02 843c 4955 81bc 5c49 adbd bbb7 2cbc

actor.actor_module.module.2.bias f4 [256]
0.06960026 -0.042195216 -0.08545033 -0.11008999 -0.07381176 -0.10974815 -0.03215419 -0.1925539
-0.32123238 -0.077510834 -0.016714688 -0.21031827 0.019748123 -0.035324585 -0.6473206 -0.022219762
-0.27973303 -0.25263235 0.0191175 -0.17200702 -0.08007587 -0.014085249 0.028817963 -0.06513059
-0.19954073 0.0023582734 -0.15301546 -0.12191629 -0.17594776 -0.15612526 -0.21287586 -0.015944628
-0.054572318 -0.14271939 -0.18257743 -0.18938826 -0.15380207 -0.17391558 -0.02105989 -0.29090467
-0.1887678 -0.043088324 -0.14688183 -0.1449083 -0.05129069 -0.021076966 -0.19996597 -0.11684766
-0.21535848 -0.10478087 -0.0754065 -0.052977514 -0.03676466 -0.39411065 0.026240861 -0.062323198
-0.013948797 -0.07388333 -1.4232794 -0.08988506 -0.28877077 -0.051960394 -0.044824045 -0.009502868
-0.23650464 -0.071207374 -0.05384636 -0.06957647 -0.11616092 -0.3681592 -0.14681882 -0.007218765
-0.039633684 -0.10147523 -0.29481745 -0.07230953 -0.20597744 -0.11467656 -0.050741043 -0.10606202
-0.20424186 0.014531921 0.12300283 -0.104195006 0.039616484 -0.0055413726 -0.041924916 -0.13549829
-0.102671064 -0.07346435 -0.05378444 -0.06654154 -0.20117716 -0.19436626 -0.23991796 -0.1278012
0.010529902 -0.043607935 -0.19500838 -0.090048276 -0.1624038 -0.065461755 -0.10046288 -0.04524949
-0.15538678 -0.2021596 -0.20789742 -0.08527728 -0.21151297 -0.24164863 -0.105444334 0.10898546
-0.1814508 -0.2712224 -0.028325317 -0.1209671 0.014221946 -0.15712091 -0.14610799 -0.062194727
-0.21276893 -0.036112636 -0.031172829 -0.21819295 -0.052585255 -0.12819283 -0.1542701 -0.08969536
-0.083501026 -0.08988719 0.040848866 -0.20716804 -0.041265342 0.18828528 -0.21839559 -0.12876208
-0.5153324 -0.1950193 0.018537315 -0.07618036 -0.007985963 -0.12809417 -0.33007827 -0.28820738
-0.04564959 -0.23869492 -0.12637638 -0.14956798 -0.0941593 -0.011542383 -0.09204005 0.088786356
-0.10815072 0.049942996 -0.13815169 0.15443473 -0.1507562 -0.12667921 -0.11553638 -0.049712546
-0.40636736 0.052726474 -0.087389216 -0.12585032 0.054293234 -0.22797294 -0.0034023623 -0.023369834
-0.10445464 -0.05847167 -0.23112027 -0.059346452 0.073223196 0.15025134 -0.08508948 -0.08251171
-0.061710726 -0.23840061 -0.20751743 0.13161872 0.0027191031 -0.1709711 -0.120921955 -0.06299334
-0.20666884 -0.09434356 -0.007774688 -0.08080247 -0.1602997 -0.3245711 -0.08013631 -0.22691749
0.06860603 -0.020799482 -0.13925807 -0.043516662 -0.21206136 -0.062383514 -0.13950667 -0.17777064
0.025256008 0.0061691385 -0.14406794 -0.25916675 -0.17581746 -0.21401735 -0.21170595 -0.26995355
-0.028684285 -0.043336626 -0.21906184 -0.11138728 -0.13676135 -0.10999053 -0.10280175 -0.12446331
-0.17426698 -0.38176966 0.060026728 -0.24211702 -0.14126648 -0.089825615 -0.22138621 -0.17103294
-0.17239265 -0.21884222 -0.17588036 -0.19394958 -0.1960055 -0.3252165 -0.23010242 0.0062686093
-0.15147428 -0.21818307 -0.037493132 -0.036275834 -0.14478162 -0.1845175 -0.018851623 -0.2844723
-0.18038742 -0.2516347 -0.20455763 -0.10142234 -0.10520467 -0.16958325 0.04285328 -0.06808727
-0.30918068 -0.1630127 -0.48609465 -0.09167693 -0.12560453 -0.1998779 -0.07725349 -0.040162526
00000000: 958a 8e3d e4d4 2cbd 9500 afbd dc76 e1bd
00000010: 9f2a 97bd a3c3 e0bd 1db4 03bd d92c 45be
00000020: 9278 a4be 00be 9ebd 3eed 88bc ac5d 57be
00000030: d1c6 a13c 83b0 10bd ceb6 25bf 3806 b6bc
00000040: 2b39 8fbe 0759 81be 4e9c 9c3c 9c22 30be
00000050: d1fe a3bd d1c5 66bc a613 ec3c 3063 85bd
00000060: 6854 4cbe 438d 1a3b 16b0 1cbe 3faf f9bd
00000070: a62b 34be 4ddf 1fbe 21fc 59be 4f9e 82bc
00000080: 3987 5fbd 0825 12be 94f5 3abe ffee 41be
00000090: 4a7e 1dbe ed16 32be ca85 acbc 75f1 94be
000000a0: 594c 41be 627d 30bd 3168 16be d762 14be
000000b0: 3016 52bd 9aa9 acbc e1c3 4cbe d34d efbd
000000c0: ef86 5cbe 5a97 d6bd b96e 9abd f3fe 58bd
000000d0: 8a96 16bd dfc8 c9be 13f7 d63c 9c46 7fbd
000000e0: 7f89 64bc 2550 97bd 052e b6bf a915 b8bd
000000f0: c3d9 93be 6cd4 54bd 6b99 37bd ebb1 1bbc
00000100: 462e 72be 2cd5 91bd 008e 5cbd 1c7e 8ebd
00000110: c7e5 edbd 5d7f bcbe ac57 16be 648b ecbb
00000120: ee56 22bd 3fd2 cfbd 50f2 96be 0517 94bd
00000130: c0eb 52be 8bdb eabd d7d5 4fbd 0b37 d9bd
00000140: c724 51be 4b17 6e3c e8e8 fb3d 3164 d5bd
00000150: e544 223d 6794 b5bb 76b9 2bbd 10c0 0abe
00000160: 3545 d2bd 7a74 96bd 134d 5cbd ee46 88bd
00000170: 6301 4ebe f307 47be 0ead 75be 51de 02be
00000180: 9c85 2c3c 3c9e 32bd 47b0 47be 3b6b b8bd
00000190: 2f4d 26be d010 86bd 7cbf cdbd 8757 39bd
000001a0: b61d 1fbe ed02 4fbe 10e3 54be dba5 aebd
000001b0: db96 58be bd72 77be 33f3 d7bd c533 df3d
000001c0: 3dce 39be aadd 8abe 7f0a e8bc 99bd f7bd
000001d0: 2a03 693c 4ee4 20be 559d 15be e6bf 7ebd
000001e0: 19e0 59be d8ea 13bd 295e ffbc f96d 5fbe
000001f0: a363 57bd fb44 03be fbf8 1dbe 33b2 b7bd
00000200: 9602 abbd c616 b8bd 2451 273d dc23 54be
00000210: d905 29bd dbcd 403e 18a3 5fbe 35da 03be
00000220: d3ec 03bf 24b3 47be 91db 973c 7304 9cbd
00000230: 8ed7 02bc 1e2b 03be 0500 a9be eb8f 93be
00000240: 11fb 3abd 716c 74be cf68 01be 5928 19be
00000250: 97d6 c0bd 431c 3dbc 7e7f bcbd 9fd5 b53d
00000260: 207e ddbd 0791 4c3d a377 0dbe 2324 1e3e
00000270: d55f 1abe 32b8 01be 569e ecbd 629f 4bbd
00000280: 620f d0be b7f7 573d 1ef9 b2bd e8de 00be
00000290: 9562 5e3d bd71 69be 2bfa 5ebb 1872 bfbc
000002a0: 50ec d5bd fd7f 6fbd cbaa 6cbe 4415 73bd
000002b0: 0bf6 953d 7ddb 193e 6543 aebd e6fb a8bd
000002c0: 63c4 7cbd 4a1f 74be 737f 54be 0fc7 063e
000002d0: fb32 323b 0c13 2fbe eea5 f7bd a702 81bd
000002e0: ffa0 53be 3237 c1bd cfc2 febb c47b a5bd
000002f0: 9b25 24be 2f2e a6be 811e a4bd 0f5d 68be
00000300: 5181 8c3d ad63 aabc ab99 0ebe 873e 32bd
00000310: 9d26 59be db85 7fbd d6da 0ebe 8209 36be
00000320: b0e5 ce3c 7c26 ca3b 8c86 13be 81b1 84be
00000330: 7e09 34be 5d27 5bbe 72c9 58be 5a37 8abe
00000340: 4efb eabc bf81 31bd bf51 60be 041f e4bd
00000350: 2b0b 0cbe b742 e1bd b989 d2bd 9fe6 febd
00000360: 0b73 32be 5077 c3be 96de 753d 86ed 77be
00000370: 29a8 10be 7ef6 b7bd 11b3 62be 4223 2fbe
00000380: b387 30be 2d18 60be fb19 34be b89a 46be
00000390: aab5 48be c782 a6be f89f 6bbe e868 cd3b
000003a0: 131c 1bbe 626b 5fbe 6692 19bd f895 14bd
000003b0: a241 14be 28f2 3cbe b86e 9abc 5aa6 91be
000003c0: 7bb7 38be 43d6 80be 8e77 51be 84b6 cfbd
000003d0: 8c75 d7bd 3ba7 2dbe ec86 2f3d 5771 8bbd
000003e0: ee4c 9ebe cdec 26be 66e1 f8be 1dc1 bbbd
000003f0: 799e 00be cbac 4cbe 1437 9ebd 7681 24bd

actor.actor_module.module.4.weight f4 [128, 256]
-0.1320757 -0.070166126 0.12703933 0.11579409 0.19719566 0.05222073 -0.14955354 -0.15121724
-0.02948152 -0.14724657 0.097617745 -0.022684578 -0.12671632 -0.010581727 -0.078096874 0.15781288
-0.08168465 0.019667616 0.030713238 -0.1822604 0.08279082 -0.059758082 -0.16585286 0.0435656
0.052173898 -0.086062066 -0.059038844 0.007474497 0.08288595 0.04171261 0.13306566 -0.18076034
-0.051428717 0.18839897 0.1695358 0.054153685 0.049566302 0.20213436 0.022202212 0.1625116
-0.23105343 -0.027256371 0.009490132 -0.094461374 -0.026714638 0.069572225 -0.077351086 0.1417023
0.09836722 -0.20528929 -0.029208522 0.18131319 0.15777162 0.07207173 0.041419875 0.11756513
-0.24739535 -0.07148982 -0.037086766 0.09472495 -0.10758465 -0.1433647 -0.16422296 -0.082403414
0.05285082 -0.11860615 0.08198472 -0.14610136 -0.1269193 -0.033052813 -0.15704015 -0.03120028
-0.114448994 0.0129326945 0.029898755 0.19134884 -0.013838684 -0.20189625 -0.037499204 -0.021708146
-0.24004392 -0.25092956 0.0021266583 0.12082892 0.046322666 0.018107355 -0.14463335 0.11359262
0.34527758 -0.041640576 0.07706811 0.0427851 0.002486126 0.033253014 -0.076455705 0.026405066
-0.12244277 -0.21994339 0.070989236 -0.08537647 0.053039312 -0.12406108 0.16930486 -0.06391931
-0.19246867 0.12396969 0.07839826 0.024257466 -0.15634821 -0.0006230101 -0.037083298 -0.14365037
0.15208721 0.23464322 0.044938877 -0.08184322 0.0071580578 0.14191602 0.054763205 0.043297872
0.1057163 0.13584529 -0.14496824 0.023317559 0.23439373 0.042229194 -0.06164417 -0.082962476
-0.0832198 0.052479196 -0.20536444 0.22935687 0.122270375 -0.10237459 -0.15370934 -0.24452169
0.2309217 0.049133804 0.1009192 -0.0466069 -0.0023054604 -0.021076052 0.025743017 0.22020005
0.09581114 -0.2479101 0.21502718 -0.09669341 0.047211654 -0.114481084 -0.23425938 0.14025013
0.0031864487 -0.26625174 0.11927776 -0.15052019 0.07287599 -0.088845275 -0.11651174 -0.030606518
-0.2542071 0.005257124 -0.1374404 -0.09612364 -0.027774261 0.17646672 -0.11398688 0.13777779
0.17126541 0.12639984 -0.011319215 -0.37456134 0.1561676 0.04405681 -0.0003461405 0.17576778
-0.09075261 0.06671778 0.17198879 -0.08228462 -0.071914144 -0.03434278 -0.20635334 0.10403294
-0.11491011 -0.010683839 -0.038171347 -0.16512 -0.025155542 -0.21427712 0.1272622 -0.2796614
-0.12026324 0.10128294 0.3096939 -0.19477822 0.022328733 -0.101380914 0.021975152 0.33908495
0.08101862 -0.0018061637 0.051674213 0.09145277 0.13938496 -0.009795306 0.10291172 0.036552306
0.012849162 0.20263058 -0.31304306 -0.33390787 -0.1222695 0.17099975 -0.085157774 -0.5007401
-0.1265038 -0.052180644 0.12833425 0.23112294 -0.05418006 -0.03931506 0.34287947 0.09660719
-0.19555387 -0.18071789 0.06284771 -0.15070602 0.3196906 0.12225477 0.13170072 -0.09304706
-0.32289204 0.09082441 0.17688714 -0.11416004 -0.2676785 0.18435672 -0.0573632 -0.10725216
0.13983564 0.29583028 -0.040169556 0.21801227 -0.062456533 -0.2111262 0.041316282 0.12064951
-0.11163249 -0.35334983 -0.16784069 -0.008910703 -0.105830505 0.091684185 -0.0129555175 -0.2132819
00000000: da3e 07be 42b3 8fbd 9916 023e 7425 ed3d
00000010: a9ed 493e 67e5 553d 9024 19be b1d8 1abe
00000020: 3b83 f1bc cec7 16be d0eb c73d 02d5 b9bc
00000030: ecc1 01be fb5e 2dbc 41f1 9fbd b399 213e
00000040: 484a a7bd fb1d a13c 549a fb3c 78a2 3abe
00000050: 3c8e a93d e4c4 74bd 55d5 29be d871 323d
00000060: 4cb4 553d 4f41 b0bd b7d2 71bd a0ec f43b
00000070: 1cc0 a93d d7da 2a3d 5d42 083e 3d19 39be
00000080: eba6 52bd a9eb 403e cb9a 2d3e 41d0 5d3d
00000090: 0906 4b3d 4ffc 4e3e 6ae1 b53c 7169 263e
000000a0: 4599 6cbe c148 dfbc 807c 1b3c f774 c1bd
000000b0: a8d8 dabc e27b 8e3d 3f6a 9ebd 681a 113e
000000c0: c174 c93d 5b37 52be b646 efbc 2aaa 393e
000000d0: e28e 213e 589a 933d e3a7 293d fdc5 f03d
000000e0: 3555 7dbe 4169 92bd 4be8 17bd 28ff c13d
000000f0: 5755 dcbd 32ce 12be 102a 28be 1fc3 a8bd
00000100: 1a7a 583d c8e7 f2bd 9be7 a73d 989b 15be
00000110: 22f7 01be 6362 07bd 22cf 20be bb97 ffbc
00000120: 3c64 eabd a7e3 533c 3cee f43c f3f0 433e
00000130: a6bb 62bc e4bd 4ebe c498 19bd 48d5 b1bc
00000140: 13ce 75be d779 80be 685f 0b3b 2775 f73d
00000150: d6bc 3d3d e055 943c c41a 14be 3fa3 e83d
00000160: 39c8 b03e 4f8f 2abd e3d5 9d3d 6e3f 2f3d
00000170: 46ee 223b 5034 083d cf94 9cbd 704f d83c
00000180: 46c3 fabd d738 61be ce62 913d dcd9 aebd
00000190: c03f 593d bc13 febd 415e 2d3e 21e8 82bd
000001a0: 8216 45be d2e3 fd3d 448f a03d 98b7 c63c
000001b0: bf19 20be 8051 23ba a8e4 17bd 1519 13be
000001c0: c0bc 1b3e 5046 703e d411 383d 6b9d a7bd
000001d0: 248e ea3b 6f52 113e 624f 603d 1c59 313d
000001e0: ca81 d83d 071b 0b3e 8e72 14be 7704 bf3c
000001f0: e904 703e 85f8 2c3d 997e 7cbd 3be8 a9bd
00000200: 246f aabd 6df4 563d 0e4b 52be 87dc 6a3e
00000210: e468 fa3d c5a9 d1bd fb65 1dbe e563 7abe
00000220: bd76 6c3e 8740 493d baae ce3d e0e6 3ebd
00000230: 3517 17bb afa7 acbc 05e3 d23c 1f7c 613e
00000240: a238 c43d 25dc 7dbe 1630 5c3e 3207 c6bd
00000250: 0261 413d 0f75 eabd b1e1 6fbe bb9d 0f3e
00000260: bdd3 503b 2652 88be e647 f43d f721 1abe
00000270: 0240 953d 83f4 b5bd b59d eebd 85ba fabc
00000280: 6f27 82be f443 ac3b 2dbd 0cbe 79dc c4bd
00000290: d986 e3bc b1b3 343e f471 e9bd 9f15 0d3e
000002a0: 3360 2f3e f66e 013e 3b74 39bc 81c6 bfbe
000002b0: 66ea 1f3e ea74 343d 317a b5b9 78fc 333e
000002c0: 81dc b9bd 55a3 883d d41d 303e d784 a8bd
000002d0: b947 93bd 04ab 0cbd 4a4e 53be 390f d53d
000002e0: fe55 ebbd 450b 2fbc 8f59 1cbd 3815 29be
000002f0: ff12 cebc 766b 5bbe 0651 023e c72f 8fbe
00000300: 934c f6bd 6e6d cf3d 3390 9e3e f173 47be
00000310: bfea b63c cca0 cfbd 3c05 b43c 8b9c ad3e
00000320: 17ed a53d ccbc ecba 57a8 533d 974b bb3d
00000330: eeba 0e3e 7e7c 20bc 61c3 d23d dfb7 153d
00000340: 4b85 523c 647e 4f3e 2e47 a0be f9f5 aabe
00000350: 6e68 fabd 8f1a 2f3e 3367 aebd 8130 00bf
00000360: 368a 01be 5fbb 55bd 0e6a 033e 7eab 6c3e
00000370: e9eb 5dbd d408 21bd e68d af3e fed9 c53d
00000380: 463f 48be 1c0e 39be 4db6 803d ae52 1abe
00000390: 7cae a33e b560 fa3d 8edc 063e 758f bebd
000003a0: 1b52 a5be 2602 ba3d e721 353e bdcc e9bd
000003b0: 280d 89be 02c8 3c3e adf5 6abd 05a7 dbbd
000003c0: 1331 0f3e 1177 973e d588 24bd 9c3e 5f3e
000003d0: 6cd2 7fbd 7731 58be 433b 293d 1717 f73d
000003e0: 939f e4bd 45ea b4be 6ede 2bbe 32fe 11bc
000003f0: aabd d8bd ebc4 bb3d 6143 54bc 9266 5abe

actor.actor_module.module.4.bias f4 [128]
-0.08823119 -0.09313441 0.1168922 -0.022128316 0.06782366 -0.035618145 -0.22598593 -0.30068392
-0.09592098 -0.025418986 -0.12410513 0.052769016 -0.21577229 0.06858786 -0.13790748 -0.18378256
-0.12936087 0.013462006 -0.08435892 0.14138636 0.030831445 -0.11949127 -0.4369521 -0.05183362
-0.309707 -0.085463524 0.0025358573 -0.0040280777 -0.19191404 0.047246136 -0.08042842 0.08871069
-0.0016951985 -0.0017588665 -0.3011053 0.0019048603 -0.04585914 -0.27147773 -0.10620275 0.071186595
-0.2646795 0.08452886 -0.06380595 -0.15678398 0.10290264 -0.16021556 -0.03817285 -0.0971376
-0.06132176 0.11390485 -0.17170583 0.042554267 -0.1714489 -0.28262857 -0.3355814 0.002600913
-0.17592913 0.074607946 0.049495924 -0.24900582 0.06230412 -0.07082475 -0.25570744 0.103577
-0.11611236 -0.004818495 -0.3494767 -0.08355345 -0.0559232 -0.049387913 0.007926199 -0.30049714
-0.14228033 -0.010467899 -0.14412948 0.11542407 -0.0965562 -0.18592884 -0.32083645 -0.4259172
-0.030067565 0.021446576 -0.0663713 -0.29137775 0.0009638797 -0.024659572 -0.07019709 -0.088667616
0.10552677 -0.13951963 -0.03371352 -0.15644716 -0.25785667 -0.20829219 -0.05752351 -1.3631314
-0.36810574 0.04031353 -0.122391135 -0.033346314 -0.04850435 -0.16946828 -0.07679767 0.09096895
-0.18753198 0.11958764 -0.47586927 -0.36085236 -0.31719816 -0.014141051 -0.09364166 -0.117522754
-0.3938261 -0.12215119 -0.13989735 -0.124294005 0.09083147 -0.23439333 -0.3373762 -0.35301086
-0.21586302 -0.020460518 0.114709295 -0.15842657 0.025454648 -0.18141267 0.068433695 -0.32231355
00000000: 8eb2 b4bd 41bd bebd 2e65 ef3d 7146 b5bc
00000010: 22e7 8a3d 55e4 11bd db68 67be 3ef3 99be
00000020: 3872 c4bd 7a3b d0bc d52a febd 5324 583d
00000030: 69f3 5cbe cb77 8c3d 9e37 0dbe 7f31 3cbe
00000040: 2d77 04be bf8f 5c3c 5fc4 acbd 96c7 103e
00000050: 3a92 fc3c d7b7 f4bd 30b8 dfbe 7d4f 54bd
00000060: ea91 9ebe 8007 afbd a030 263b f7fd 83bb
00000070: 1d85 44be 2a85 413d a8b7 a4bd f3ad b53d
00000080: 6c31 deba c489 e6ba 792a 9abe 81ac f93a
00000090: cbd6 3bbd 21ff 8abe d480 d9bd 47ca 913d
000000a0: 1284 87be 781d ad3d b2ac 82bd fb8b 20be
000000b0: 9fbe d23d 8c0f 24be 225b 1cbd 14f0 c6bd
000000c0: 872c 7bbd f246 e93d a7d3 2fbe 624d 2e3d
000000d0: 4d90 2fbe b1b4 90be 53d1 abbe 1474 2a3b
000000e0: c426 34be 0dcc 983d 3dbc 4a3d 62fb 7ebe
000000f0: 9b32 7f3d 910c 91bd 16ec 82be 2e20 d43d
00000100: 51cc edbd 77e4 9dbb 9cee b2be 121e abbd
00000110: ba0f 65bd fb4a 4abd e3dc 013c c3da 99be
00000120: efb1 11be 8d81 2bbc ae96 13be 7463 ec3d
00000130: 42bf c5bd 2164 3ebe ad44 a4be d211 dabe
00000140: 4150 f6bc bbb0 af3c aded 87bd 772f 95be
00000150: dfac 7c3a df02 cabc 7ec3 8fbd 5e97 b5bd
00000160: 6b1e d83d 3cde 0ebe 3017 0abd af33 20be
00000170: ca05 84be 8c4a 55be c69d 6bbd 177b aebf
00000180: 5b78 bcbe cd1f 253d 34a8 fabd 2596 08bd
00000190: 7fac 46bd 1889 2dbe 1948 9dbd ee4d ba3d
000001a0: 6208 40be 5dea f43d 23a5 f3be a4c1 b8be
000001b0: cc67 a2be deaf 67bc 33c7 bfbd c5af f0bd
000001c0: 93a3 c9be 672a fabd 4041 0fbe db8d febd
000001d0: da05 ba3d ce04 70be 93bc acbe d7bd b4be
000001e0: 320b 5dbe d19c a7bc b5ec ea3d 933a 22be
000001f0: 4486 d03c 3ec4 39be f726 8c3d 4806 a5be

actor.actor_module.module.6.weight f4 [29, 128]
0.08251879 0.0034859022 0.110081576 0.06990529 0.031830575 0.037488535 -0.029819584 -0.04051652
0.008033498 -0.12691118 0.07294334 0.08771039 0.0005154625 0.046778727 0.091670774 -0.0065490482
0.06603973 -0.006095632 -0.016954454 0.016590323 0.071003586 -0.10357945 0.09354578 -0.01087531
-0.24379057 0.03944545 -0.0012943846 0.048572816 -0.12207424 -0.023579737 -0.010120028 0.01459548
-0.040003523 -0.15975325 -0.025047677 0.006551018 -0.0063047544 -0.0030769338 -0.113424286 -0.042540982
-0.058303367 -0.042376608 -0.015450686 -0.035919294 -0.012645685 0.0002753588 0.008458909 0.0060693934
0.013558878 0.053151555 -0.07147913 0.069782674 -0.03414624 -0.12258153 -0.17022952 -0.038452037
-0.00045295598 0.0067165983 -0.015855145 0.017972752 -0.009834767 0.032796424 0.029206773 0.041993503
-0.029090187 0.006680068 -0.05983309 -0.07319017 0.061235603 0.044382874 0.006991019 0.103018366
-0.04397701 0.011829221 0.0111493515 0.06650136 -0.050819244 0.09039959 0.07308335 -0.07417984
-0.0034863316 0.034358863 0.0025484073 0.02792717 -0.0031068013 -0.11130549 -0.008678079 -0.092751235
-0.07444267 0.06806842 0.010762856 0.022448314 -0.114487 0.068539195 0.12017081 -0.0020240322
0.026582565 -0.01611546 0.13039325 0.0071142507 -0.023369912 0.09108862 -0.069529 0.013781888
0.012424378 0.010495181 -0.06647334 0.031721503 -0.031896293 -0.012529608 0.047940306 -0.10223883
0.0072309067 0.06978569 -0.09883894 -0.055847883 0.02531198 0.010187779 0.0025022146 -0.043735147
-0.0600661 0.07010282 0.045195844 0.053489782 0.027093312 -0.038515165 -0.007365099 0.17963968
-0.027224435 -0.0014269223 -0.016293023 -0.11336352 0.037537847 -0.03611734 0.018881101 -0.029385056
0.0142868925 -0.019848498 -0.03456141 0.015000479 0.01906058 -0.010396434 0.013843322 0.010268312
-0.024183195 -0.0042073033 0.0025007427 -0.003122988 -0.028950648 0.014515132 -0.0002597727 -0.042900085
0.03823361 0.0022172965 -0.007998985 0.028129593 0.009332469 0.013056382 0.07141973 0.008799971
-0.030020611 0.010163332 0.029606411 -0.008701209 -0.0046861297 -0.09095779 -0.03506436 -0.014968241
-0.03985035 0.030299533 0.0073663704 -0.07602257 0.016494047 -0.0655317 -0.0028970535 0.010312332
0.0002766043 -0.007438929 0.060765367 0.01409105 0.013789053 -0.075847134 0.046873584 0.009021328
-0.06829419 0.03013356 0.057470184 0.004439873 -0.010948731 -0.030625481 -0.1129786 -0.003048112
-0.017366018 -0.0012133953 0.005394675 0.0070436667 -0.03435729 -0.017740702 -0.008919006 0.02392412
-0.054596834 -0.006978064 -0.07004986 -0.001840573 -0.010907122 0.115525745 0.1060715 -0.073553964
0.0066566397 0.061393023 0.012222544 -0.042317662 -0.006082043 0.0074100597 0.013512639 -0.004902131
0.017314838 0.037519254 -0.030804088 -0.014334897 0.001660437 -0.03331131 -0.045931198 -0.039081626
0.0064522573 0.0043994975 0.028485164 0.0025857945 0.026544092 0.015508529 -0.04102783 -0.0011914734
-0.021081302 0.007244696 -0.0048533226 0.0049901037 -0.021565335 -6.944205e-06 -0.10089634 -0.008756633
-0.06257586 0.039338484 -0.037273195 -0.12372481 -0.0066345823 -0.0064937687 -0.0349637 -0.040324368
-0.0030000971 -0.014904325 -0.017772922 -0.002870267 0.048830625 0.023670329 -0.0038639223 0.050864726
00000000: 9dff a83d bc73 643b 7372 e13d 812a 8f3d
00000010: c760 023d 948d 193d 3348 f4bc a7f4 25bd
00000020: ef9e 033c 01f5 01be 5163 953d 81a1 b33d
00000030: 1a20 073a 0d9b 3f3d e3bd bb3d 6699 d6bb
00000040: d73f 873d debd c7bb 11e4 8abc 6ee8 873c
00000050: 546a 913d 7621 d4bd ee94 bf3d 5b2e 32bc
00000060: 3ca4 79be 8d91 213d 57a8 a9ba 4af4 463d
00000070: 0f02 fabd 4b2a c1bc 79ce 25bc e121 6f3c
00000080: bcda 23bd 5b96 23be c930 cdbc eca9 d63b
00000090: 1d98 cebb 62a6 49bb fe4a e8bd 743f 2ebd
000000a0: 83cf 6ebd 1893 2dbd e024 7dbc 1c20 13bd
000000b0: d92f 4fbc 085e 9039 3c97 0a3c c3e1 c63b
000000c0: 0e26 5e3c 72b5 593d a663 92bd 38ea 8e3d
000000d0: eedc 0bbd 060c fbbd a650 2ebe e27f 1dbd
000000e0: b97a edb9 e916 dc3b a6e2 81bc 983b 933c
000000f0: 0122 21bc 8b55 063d 0b43 ef3c 6101 2c3d
00000100: 8b4e eebc 79e4 da3b 8b13 75bd bae4 95bd
00000110: 2fd2 7a3d d1ca 353d eb14 e53b 4bfb d23d
00000120: 3d21 34bd 59cf 413c c5ab 363c dd31 883d
00000130: d727 50bd 6c23 b93d b9ac 953d 9aeb 97bd
00000140: f07a 64bb e1bb 0c3d 2e03 273b 85c7 e43c
00000150: 7a9b 4bbb 22f4 e3bd 802e 0ebc 5cf4 bdbd
00000160: 6675 98bd 7567 8b3d b156 303c 87e5 b73c
00000170: 2978 eabd 475e 8c3d 1d1c f63d a0a5 04bb
00000180: aec3 d93c 9204 84bc cf85 053e a91e e93b
00000190: 4272 bfbc ac8c ba3d 3865 8ebd 6ecd 613c
000001a0: 9e8f 4b3c fbf3 2b3c 2d23 88bd 68ee 013d
000001b0: b0a5 02bd fc48 4dbc 0e5d 443d 9762 d1bd
000001c0: 3ef1 ec3b cdeb 8e3d 126c cabd c0c0 64bd
000001d0: 125b cf3c a4ea 263c 32fc 233b a023 33bd
000001e0: df07 76bd 1192 8f3d 471f 393d 1a18 5b3d
000001f0: cbf2 dd3c 14c2 1dbd ee56 f1bb 77f3 373e
00000200: c705 dfbc 9107 bbba f278 85bc 222b e8bd
00000210: 49c1 193d c7ef 13bd 8aac 9a3c eeb8 f0bc
00000220: 9213 6a3c 5199 a2bc 4490 0dbd 92c4 753c
00000230: ef24 9c3c ce55 2abc 1acf 623c 6c3c 283c
00000240: d61b c6bc 6bdd 89bb 80e3 233b 0bab 4cbb
00000250: e929 edbc e0d0 6d3c 1a32 88b9 00b8 2fbd
00000260: d99a 1c3d 1050 113b 2d0e 03bc 0870 e63c
00000270: 36e7 183c 6fea 553c 8244 923d c12d 103c
00000280: c9ed f5bc 1b84 263c 2589 f23c 848f 0ebc
00000290: 1b8e 99bb 1448 babd a59f 0fbd 5a3d 75bc
000002a0: 1f3a 23bd ba36 f83c 9861 f13b b9b1 9bbd
000002b0: 861e 873c 7c35 86bd 7edc 3dbb 0ef5 283c
000002c0: 3305 9139 42c2 f3bb 1be5 783d 26de 663c
000002d0: 7beb 613c be55 9bbd 84fe 3f3d 31ce 133c
000002e0: d3dd 8bbd a8da f63c db65 6b3d 5b7c 913b
000002f0: 4e62 33bc 4ae2 fabc 5361 e7bd d5c2 47bb
00000300: 2e43 8ebc ca0a 9fba d0c5 b03b 8fce e63b
00000310: 3bba 0cbd f354 91bc 0621 12bc 84fc c33c
00000320: eea0 5fbd 3ea8 e4bb 4d76 8fbd 623f f1ba
00000330: c9b3 32bc c398 ec3d 043c d93d 76a3 96bd
00000340: f11f da3b 4077 7b3d 1141 483c 4955 2dbd
00000350: e04b c7bb 16d0 f23b 1e64 5d3c 0ea2 a0bb
00000360: d9d7 8d3c caad 193d db58 fcbc eadc 6abc
00000370: 05a3 d93a 7171 08bd 5a22 3cbd 0e14 20bd
00000380: 756d d33b a929 903b b859 e93c 6f76 293b
00000390: ff72 d93c 7c17 7e3c cc0c 28bd 372b 9cba
000003a0: b2b2 acbc ea64 ed3b 9f08 9fbb 0684 a33b
000003b0: c9a9 b0bc 4402 e9b6 bea2 cebd fb77 0fbc
000003c0: c627 80bd 6421 213d c7ab 18bd 6f63 fdbd
000003d0: e966 d9bb aec9 d4bb 1936 0fbd 2a2b 25bd
000003e0: 479d 44bb 4531 74bc 8598 91bc 171b 3cbb
000003f0: 9f02 483d 47e8 c13c dc39 7dbb 8857 503d

actor.actor_module.module.6.bias f4 [29]
0.0074443584 0.1324996 -0.15364687 -0.563519 0.28993514 -0.023206864 0.027312689 -0.1347948
0.15295546 -0.55792356 0.29513335 0.035200544 0.0056885206 0.00328379 -0.8416579 -0.0645261
-0.031903654 -0.047698446 -0.059562415 -0.057322536 -0.04024624 -0.07530109 -0.057146363 0.033071376
0.060302265 -0.06254411 0.060530614 -0.04526187 0.08384078
00000000: ceef f33b faad 073e 9b55 1dbe c842 10bf
00000010: 6172 943e 521c bebc dcbe df3c a607 0abe
00000020: 5ba0 1c3e 14d4 0ebf b81b 973e 722e 103d
00000030: c566 ba3b db34 573b e476 57bf 4326 84bd
00000040: 68ad 02bd 725f 43bd b8f7 73bd 09cb 6abd
00000050: 3ed9 24bd 7537 9abd 4e12 6abd da75 073d
00000060: 82ff 763d 2017 80bd f3ee 773d 8364 39bd
00000070: b7b4 ab3d
